…
  "eos_token_id": 2,
  "hidden_act": "silu",
  "hidden_size": 2048,
  "initializer_range": 0.02,
  "intermediate_size": 5632,
  "max_position_embeddings": 2048,
  "model_type": "llava_llama",
  "num_attention_heads": 32,
  "num_hidden_layers": 22,
  "num_key_value_heads": 4,
  "pad_token_id": 0,
  "pretraining_tp": 1,
  "rms_norm_eps": 1e-05,
  "rope_scaling": null,
  "rope_theta": 10000.0,
  "tie_word_embeddings": false,
  "torch_dtype": "bfloat16",
  "transformers_version": "4.31.0",
  "use_cache": true,
  "vocab_size": 32000
}

【COND】 mm_vision_tower=False
self.model
 LlavaLlamaModel(
  (embed_tokens): Embedding(32000, 2048, padding_idx=0)
  (layers): ModuleList(
    (0-21): 22 x LlamaDecoderLayer(
      (self_attn): LlamaAttention(
        (q_proj): Linear(in_features=2048, out_features=2048, bias=False)
        (k_proj): Linear(in_features=2048, out_features=256, bias=False)
        (v_proj): Linear(in_features=2048, out_features=256, bias=False)
        (o_proj): Linear(in_features=2048, out_features=2048, bias=False)
        (rotary_emb): LlamaRotaryEmbedding()
      )
      (mlp): LlamaMLP(
        (gate_proj): Linear(in_features=2048, out_features=5632, bias=False)
        (up_proj): Linear(in_features=2048, out_features=5632, bias=False)
        (down_proj): Linear(in_features=5632, out_features=2048, bias=False)
        (act_fn): SiLUActivation()
      )
      (input_layernorm): LlamaRMSNorm()
      (post_attention_layernorm): LlamaRMSNorm()
    )
  )
  (norm): LlamaRMSNorm()
)
self.pretraining_tp
 1
self.vocab_size
 32000
self.lm_head
 Linear(in_features=2048, out_features=32000, bias=False)
Some weights of LlavaLlamaForCausalLM were not initialized from t
…
yers.19.self_attn.rotary_emb.inv_freq', 'model.layers.4.self_attn.rotary_emb.inv_freq', 'model.layers.0.self_attn.rotary_emb.inv_freq', 'model.layers.10.self_attn.rotary_emb.inv_freq', 'model.layers.14.self_attn.rotary_emb.inv_freq', 'model.layers.16.self_attn.rotary_emb.inv_freq', 'model.layers.20.self_attn.rotary_emb.inv_freq', 'model.layers.6.self_attn.rotary_emb.inv_freq']
You should probably TRAIN this model on a down-stream task to be able to use it for predictions and inference.
model defined as LlavaLlamaForCausalLM 
 LlavaLlamaForCausalLM(
  (model): LlavaLlamaModel(
    (embed_tokens): Embedding(32000, 2048, padding_idx=0)
    (layers): ModuleList(
      (0-21): 22 x LlamaDecoderLayer(
        (self_attn): LlamaAttention(
          (q_proj): Linear(in_features=2048, out_features=2048, bias=False)
          (k_proj): Linear(in_features=2048, out_features=256, bias=False)
          (v_proj): Linear(in_features=2048, out_features=256, bias=False)
          (o_proj): Linear(in_features=2048, out_features=2048, bias=False)
          (rotary_emb): LlamaRotaryEmbedding()
        )
        (mlp): LlamaMLP(
          (gate_proj): Linear(in_features=2048, out_features=5632, bias=False)
          (up_proj): Linear(in_features=2048, out_features=5632, bias=False)
          (down_proj): Linear(in_features=5632, out_features=2048, bias=False)
          (act_fn): SiLUActivation()
        )
        (input_layernorm): LlamaRMSNorm()
        (post_attention_layernorm): LlamaRMSNorm()
      )
    )
    (norm): LlamaRMSNorm()
  )
  (lm_head): Linear(in_features=2048, out_features=32000, bias=False)
)
【EXIT】else of if 'mpt' in model_args.model_name_or_path:
【EXIT】if model_args.vision_tower is not None:
【COND】 freeze_backbone=False
【COND】 bits=16
【COND】 gradient_checkpointing=True
【ENTER】if training_args.gradient_checkpointing:
【COND】 has_enable_input_require_grads=True
【ENTER】if hasattr(model, 'enable_input_require_grads'):
【EXIT】if hasattr(model, 'enable_input_require_grads'):
…
  },
  "do_center_crop": true,
  "do_convert_rgb": true,
  "do_normalize": true,
  "do_rescale": true,
  "do_resize": true,
  "feature_extractor_type": "CLIPFeatureExtractor",
  "image_mean": [
    0.48145466,
    0.4578275,
    0.40821073
  ],
  "image_processor_type": "CLIPImageProcessor",
  "image_std": [
    0.26862954,
    0.26130258,
    0.27577711
  ],
  "resample": 3,
  "rescale_factor": 0.00392156862745098,
  "size": {
    "shortest_edge": 336
  }
}

self.vision_tower
 CLIPVisionModel(
  (vision_model): CLIPVisionTransformer(
    (embeddings): CLIPVisionEmbeddings(
      (patch_embedding): Conv2d(3, 1024, kernel_size=(14, 14), stride=(14, 14), bias=False)
      (position_embedding): Embedding(577, 1024)
    )
    (pre_layrnorm): LayerNorm((1024,), eps=1e-05, elementwise_affine=True)
    (encoder): CLIPEncoder(
      (layers): ModuleList(
        (0-23): 24 x CLIPEncoderLayer(
          (self_attn): CLIPAttention(
            (k_proj): Linear(in_features=1024, out_features=1024, bias=True)
            (v_proj): Linear(in_features=1024, out_features=1024, bias=True)
            (q_proj): Linear(in_features=1024, out_features=1024, bias=True)
            (out_proj): Linear(in_features=1024, out_features=1024, bias=True)
          )
          (layer_norm1): LayerNorm((1024,), eps=1e-05, elementwise_affine=True)
          (mlp): CLIPMLP(
            (activation_fn): QuickGELUActivation()
            (fc1): Linear(in_features=1024, out_features=4096, bias=True)
            (fc2): Linear(in_features=4096, out_features=1024, bias=True)
          )
          (layer_norm2): LayerNorm((1024,), eps=1e-05, elementwise_affine=True)
        )
      )
    )
    (post_layernorm): LayerNorm((1024,), eps=1e-05, elementwise_affine=True)
  )
)
self.is_loaded
 True
result (return)
 CLIPVisionTower(
  (vision_tower): CLIPVisionModel(
    (vision_model): CLIPVisionTransformer(
      (embeddings): CLIPVisionEmbeddings(
        (patch_embedding): Conv2d(3, 1024, kernel_size=(14, 14), stride=(14, 14), bias=False)
        (position_embedding): Embedding(577, 1024)
      )
      (pre_layrnorm): LayerNorm((1024,), eps=1e-05, elementwise_affine=True)
      (encoder): CLIPEncoder(
        (layers): ModuleList(
          (0-23): 24 x CLIPEncoderLayer(
            (self_attn): CLIPAttention(
              (k_proj): Linear(in_features=1024, out_features=1024, bias=True)
              (v_proj): Linear(in_features=1024, out_features=1024, bias=True)
              (q_proj): Linear(in_features=1024, out_features=1024, bias=True)
              (out_proj): Linear(in_features=1024, out_features=1024, bias=True)
            )
            (layer_norm1): LayerNorm((1024,), eps=1e-05, elementwise_affine=True)
            (mlp): CLIPMLP(
              (activation_fn): QuickGELUActivation()
              (fc1): Linear(in_features=1024, out_features=4096, bias=True)
              (fc2): Linear(in_features=4096, out_features=1024, bias=True)
            )
            (layer_norm2): LayerNorm((1024,), eps=1e-05, elementwise_affine=True)
          )
        )
      )
      (post_layernorm): LayerNorm((1024,), eps=1e-05, elementwise_affine=True)
    )
  )
)
【EXIT】if is_absolute_path_exists or vision_tower.startswith('openai') or vision_tower.startswith('laion') or 'ShareGPT4V' in vision_tower:
vision_tower after build_vision_tower
 CLIPVisionTower(
  (vision_tower): CLIPVisionModel(
    (vision_model): CLIPVisionTransformer(
      (embeddings): CLIPVisionEmbeddings(
        (patch_embedding): Conv2d(3, 1024, kernel_size=(14, 14), stride=(14, 14), bias=False)
        (position_embedding): Embedding(577, 1024)
      )
      (pre_layrnorm): LayerNorm((1024,), eps=1e-05, elementwise_affine=True)
      (encoder): CLIPEncoder(
        (layers): ModuleList(
          (0-23): 24 x CLIPEncoderLayer(
            (self_attn): CLIPAttention(
              (k_proj): Linear(in_features=1024, out_features=1024, bias=True)
              (v_proj): Linear(in_features=1024, out_features=1024, bias=True)
              (q_proj): Linear(in_features=1024, out_features=1024, bias=True)
              (out_proj): Linear(in_features=1024, out_features=1024, bias=True)
            )
            (layer_norm1): LayerNorm((1024,), eps=1e-05, elementwise_affine=True)
            (mlp): CLIPMLP(
              (activation_fn): QuickGELUActivation()
              (fc1): Linear(in_features=1024, out_features=4096, bias=True)
              (fc2): Linear(in_features=4096, out_features=1024, bias=True)
            )
            (layer_norm2): LayerNorm((1024,), eps=1e-05, elementwise_affine=True)
          )
        )
      )
      (post_layernorm): LayerNorm((1024,), eps=1e-05, elementwise_affine=True)
    )
  )
)
【COND】 fsdp
 []
【COND】 fsdp_is_not_None=True len_fsdp=0
【COND】 else_fsdp_is_not_None_and_len_fsdp_gt_0=True
【ENTER】else of if fsdp is not None and len(fsdp) > 0:
self.vision_tower
 CLIPVisionTower(
  (vision_tower): CLIPVisionModel(
    (vision_model): CLIPVisionTransformer(
      (embeddings): CLIPVisionEmbeddings(
        (patch_embedding): Conv2d(3, 1024, kernel_size=(14, 14), stride=(14, 14), bias=False)
        (position_embedding): Embedding(577, 1024)
      )
      (pre_layrnorm): LayerNorm((1024,), eps=1e-05, elementwise_affine=True)
      (encoder): CLIPEncoder(
        (layers): ModuleList(
          (0-23): 24 x CLIPEncoderLayer(
            (self_attn): CLIPAttention(
              (k_proj): Linear(in_features=1024, out_features=1024, bias=True)
              (v_proj): Linear(in_features=1024, out_features=1024, bias=True)
              (q_proj): Linear(in_features=1024, out_features=1024, bias=True)
              (out_proj): Linear(in_features=1024, out_features=1024, bias=True)
            )
            (layer_norm1): LayerNorm((1024,), eps=1e-05, elementwise_affine=True)
            (mlp): CLIPMLP(
              (activation_fn): QuickGELUActivation()
              (fc1): Linear(in_features=1024, out_features=4096, bias=True)
              (fc2): Linear(in_features=4096, out_features=1024, bias=True)
            )
            (layer_norm2): LayerNorm((1024,), eps=1e-05, elementwise_affine=True)
          )
        )
      )
      (post_layernorm): LayerNorm((1024,), eps=1e-05, elementwise_affine=True)
    )
  )
)
【EXIT】else of if fsdp is not None and len(fsdp) > 0:
【EXIT】if self.get_vision_tower() is None:
self.config.use_mm_proj set to True
self.config.mm_projector_type
 mlp2x_gelu
current file path llava/llava/model/multimodal_encoder/clip_encoder.py
def CLIPVisionTower.hidden_size(self)
self
 <class '__main__.CLIPVisionTower'>
current file path llava/llava/model/multimodal_encoder/clip_encoder.py
…
  "transformers_version": "4.31.0",
  "use_cache": true,
  "use_mm_proj": true,
  "vocab_size": 32000
}

delay_load
 False
kwargs
 {}
projector_type from config
 mlp2x_gelu
【COND】 projector_type
 mlp2x_gelu
【COND】mlp_gelu_match
 <re.Match object; span=(0, 10), match='mlp2x_gelu'>
【ENTER】if mlp_gelu_match:
mlp_depth from mlp_gelu_match.group(1)
 2
modules after first Linear
 [Linear(in_features=1024, out_features=2048, bias=True)]
modules before Sequential
 [Linear(in_features=1024, out_features=2048, bias=True), GELU(approximate='none'), Linear(in_features=2048, out_features=2048, bias=True)]
result (return)
 Sequential(
  (0): Linear(in_features=1024, out_features=2048, bias=True)
  (1): GELU(approximate='none')
  (2): Linear(in_features=2048, out_features=2048, bias=True)
)
【EXIT】if mlp_gelu_match:
self.mm_projector after build_vision_projector
 Sequential(
  (0): Linear(in_features=1024, out_features=2048, bias=True)
  (1): GELU(approximate='none')
  (2): Linear(in_features=2048, out_features=2048, bias=True)
)
mm_patch_merge_type
 flat
【COND】 unpad_in_mm_patch_merge_type=False
【EXIT】if getattr(self, 'mm_projector', None) is None:
【COND】 pretrain_mm_mlp_adapter_is_not_None=False
current file path llava/model/llava_arch.py
class LlavaMetaForCausalLM(ABC).get_vision_tower(self)
current file path llava/llava/model/language_model/llava_llama.py
def LlavaLlamaForCausalLM.get_model(self)
self
 <class '__main__.LlavaLlamaForCausalLM'>
self.model (return)
 LlavaLlamaModel(
  (embed_tokens): Embedding(32000, 2048, padding_idx=0)
  (layers): ModuleList(
    (0-21): 22 x LlamaDecoderLayer(
      (self_attn): LlamaAttention(
        (q_proj): Linear(in_features=2048, out_features=2048, bias=False)
        (k_proj): Linear(in_features=2048, out_features=256, bias=False)
        (v_proj): Linear(in_features=2048, out_features=256, bias=False)
        (o_proj): Linear(in_features=2048, out_features=2048, bias=False)
        (rotary_emb): LlamaRotaryEmbedding()
      )
      (mlp): LlamaMLP(
        (gate_proj): Linear(in_features=2048, out_features=5632, bias=False)
        (up_proj): Linear(in_features=2048, out_features=5632, bias=False)
        (down_proj): Linear(in_features=5632, out_features=2048, bias=False)
        (act_fn): SiLUActivation()
      )
      (input_layernorm): LlamaRMSNorm()
      (post_attention_layernorm): LlamaRMSNorm()
    )
  )
  (norm): LlamaRMSNorm()
  (vision_tower): CLIPVisionTower(
    (vision_tower): CLIPVisionModel(
      (vision_model): CLIPVisionTransformer(
        (embeddings): CLIPVisionEmbeddings(
          (patch_embedding): Conv2d(3, 1024, kernel_size=(14, 14), stride=(14, 14), bias=False)
          (position_embedding): Embedding(577, 1024)
        )
        (pre_layrnorm): LayerNorm((1024,), eps=1e-05, elementwise_affine=True)
        (encoder): CLIPEncoder(
          (layers): ModuleList(
            (0-23): 24 x CLIPEncoderLayer(
              (self_attn): CLIPAttention(
                (k_proj): Linear(in_features=1024, out_features=1024, bias=True)
                (v_proj): Linear(in_features=1024, out_features=1024, bias=True)
                (q_proj): Linear(in_features=1024, out_features=1024, bias=True)
                (out_proj): Linear(in_features=1024, out_features=1024, bias=True)
              )
              (layer_norm1): LayerNorm((1024,), eps=1e-05, elementwise_affine=True)
              (mlp): CLIPMLP(
                (activation_fn): QuickGELUActivation()
                (fc1): Linear(in_features=1024, out_features=4096, bias=True)
                (fc2): Linear(in_features=4096, out_features=1024, bias=True)
              )
              (layer_norm2): LayerNorm((1024,), eps=1e-05, elementwise_affine=True)
            )
          )
        )
        (post_layernorm): LayerNorm((1024,), eps=1e-05, elementwise_affine=True)
      )
    )
  )
  (mm_projector): Sequential(
    (0): Linear(in_features=1024, out_features=2048, bias=True)
    (1): GELU(approximate='none')
    (2): Linear(in_features=2048, out_features=2048, bias=True)
  )
)
current file path llava/model/llava_arch.py
def get_vision_tower(self)
vision_tower (raw)
 CLIPVisionTower(
  (vision_tower): CLIPVisionModel(
    (vision_model): CLIPVisionTransformer(
      (embeddings): CLIPVisionEmbeddings(
        (patch_embedding): Conv2d(3, 1024, kernel_size=(14, 14), stride=(14, 14), bias=False)
        (position_embedding): Embedding(577, 1024)
      )
      (pre_layrnorm): LayerNorm((1024,), eps=1e-05, elementwise_affine=True)
      (encoder): CLIPEncoder(
        (layers): ModuleList(
          (0-23): 24 x CLIPEncoderLayer(
            (self_attn): CLIPAttention(
              (k_proj): Linear(in_features=1024, out_features=1024, bias=True)
              (v_proj): Linear(in_features=1024, out_features=1024, bias=True)
              (q_proj): Linear(in_features=1024, out_features=1024, bias=True)
              (out_proj): Linear(in_features=1024, out_features=1024, bias=True)
            )
            (layer_norm1): LayerNorm((1024,), eps=1e-05, elementwise_affine=True)
            (mlp): CLIPMLP(
              (activation_fn): QuickGELUActivation()
              (fc1): Linear(in_features=1024, out_features=4096, bias=True)
              (fc2): Linear(in_features=4096, out_features=1024, bias=True)
            )
            (layer_norm2): LayerNorm((1024,), eps=1e-05, elementwise_affine=True)
          )
        )
      )
      (post_layernorm): LayerNorm((1024,), eps=1e-05, elementwise_affine=True)
    )
  )
)
type(vision_tower)
 <class '__main__.CLIPVisionTower'>
【COND】 type_vision_tower_is_list=False
vision_tower (return)
 CLIPVisionTower(
  (vision_tower): CLIPVisionModel(
    (vision_model): CLIPVisionTransformer(
      (embeddings): CLIPVisionEmbeddings(
        (patch_embedding): Conv2d(3, 1024, kernel_size=(14, 14), stride=(14, 14), bias=False)
        (position_embedding): Embedding(577, 1024)
      )
      (pre_layrnorm): LayerNorm((1024,), eps=1e-05, elementwise_affine=True)
      (encoder): CLIPEncoder(
        (layers): ModuleList(
          (0-23): 24 x CLIPEncoderLayer(
            (self_attn): CLIPAttention(
              (k_proj): Linear(in_features=1024, out_features=1024, bias=True)
              (v_proj): Linear(in_features=1024, out_features=1024, bias=True)
              (q_proj): Linear(in_features=1024, out_features=1024, bias=True)
              (out_proj): Linear(in_features=1024, out_features=1024, bias=True)
            )
            (layer_norm1): LayerNorm((1024,), eps=1e-05, elementwise_affine=True)
            (mlp): CLIPMLP(
              (activation_fn): QuickGELUActivation()
              (fc1): Linear(in_features=1024, out_features=4096, bias=True)
              (fc2): Linear(in_features=4096, out_features=1024, bias=True)
            )
            (layer_norm2): LayerNorm((1024,), eps=1e-05, elementwise_affine=True)
          )
        )
      )
      (post_layernorm): LayerNorm((1024,), eps=1e-05, elementwise_affine=True)
    )
  )
)
LlavaMetaForCausalLM(ABC).get_vision_tower(self) result (return)
 CLIPVisionTower(
  (vision_tower): CLIPVisionModel(
    (vision_model): CLIPVisionTransformer(
      (embeddings): CLIPVisionEmbeddings(
        (patch_embedding): Conv2d(3, 1024, kernel_size=(14, 14), stride=(14, 14), bias=False)
        (position_embedding): Embedding(577, 1024)
      )
      (pre_layrnorm): LayerNorm((1024,), eps=1e-05, elementwise_affine=True)
      (encoder): CLIPEncoder(
        (layers): ModuleList(
          (0-23): 24 x CLIPEncoderLayer(
            (self_attn): CLIPAttention(
              (k_proj): Linear(in_features=1024, out_features=1024, bias=True)
              (v_proj): Linear(in_features=1024, out_features=1024, bias=True)
              (q_proj): Linear(in_features=1024, out_features=1024, bias=True)
              (out_proj): Linear(in_features=1024, out_features=1024, bias=True)
            )
            (layer_norm1): LayerNorm((1024,), eps=1e-05, elementwise_affine=True)
            (mlp): CLIPMLP(
              (activation_fn): QuickGELUActivation()
              (fc1): Linear(in_features=1024, out_features=4096, bias=True)
              (fc2): Linear(in_features=4096, out_features=1024, bias=True)
            )
            (layer_norm2): LayerNorm((1024,), eps=1e-05, elementwise_affine=True)
          )
        )
      )
      (post_layernorm): LayerNorm((1024,), eps=1e-05, elementwise_affine=True)
    )
  )
)
【COND】 tune_mm_mlp_adapter=True
【ENTER】if model_args.tune_mm_mlp_adapter:
current file path llava/llava/model/language_model/llava_llama.py
def LlavaLlamaForCausalLM.get_model(self)
self
 <class '__main__.LlavaLlamaForCausalLM'>
self.model (return)
 LlavaLlamaModel(
  (embed_tokens): Embedding(32000, 2048, padding_idx=0)
  (layers): ModuleList(
    (0-21): 22 x LlamaDecoderLayer(
      (self_attn): LlamaAttention(
        (q_proj): Linear(in_features=2048, out_features=2048, bias=False)
        (k_proj): Linear(in_features=2048, out_features=256, bias=False)
        (v_proj): Linear(in_features=2048, out_features=256, bias=False)
        (o_proj): Linear(in_features=2048, out_features=2048, bias=False)
        (rotary_emb): LlamaRotaryEmbedding()
      )
      (mlp): LlamaMLP(
        (gate_proj): Linear(in_features=2048, out_features=5632, bias=False)
        (up_proj): Linear(in_features=2048, out_features=5632, bias=False)
        (down_proj): Linear(in_features=5632, out_features=2048, bias=False)
        (act_fn): SiLUActivation()
      )
      (input_layernorm): LlamaRMSNorm()
      (post_attention_layernorm): LlamaRMSNorm()
    )
  )
  (norm): LlamaRMSNorm()
  (vision_tower): CLIPVisionTower(
    (vision_tower): CLIPVisionModel(
      (vision_model): CLIPVisionTransformer(
        (embeddings): CLIPVisionEmbeddings(
          (patch_embedding): Conv2d(3, 1024, kernel_size=(14, 14), stride=(14, 14), bias=False)
          (position_embedding): Embedding(577, 1024)
        )
        (pre_layrnorm): LayerNorm((1024,), eps=1e-05, elementwise_affine=True)
        (encoder): CLIPEncoder(
          (layers): ModuleList(
            (0-23): 24 x CLIPEncoderLayer(
              (self_attn): CLIPAttention(
                (k_proj): Linear(in_features=1024, out_features=1024, bias=True)
                (v_proj): Linear(in_features=1024, out_features=1024, bias=True)
                (q_proj): Linear(in_features=1024, out_features=1024, bias=True)
                (out_proj): Linear(in_features=1024, out_features=1024, bias=True)
              )
              (layer_norm1): LayerNorm((1024,), eps=1e-05, elementwise_affine=True)
              (mlp): CLIPMLP(
                (activation_fn): QuickGELUActivation()
                (fc1): Linear(in_features=1024, out_features=4096, bias=True)
                (fc2): Linear(in_features=4096, out_features=1024, bias=True)
              )
              (layer_norm2): LayerNorm((1024,), eps=1e-05, elementwise_affine=True)
            )
          )
        )
        (post_layernorm): LayerNorm((1024,), eps=1e-05, elementwise_affine=True)
      )
    )
  )
  (mm_projector): Sequential(
    (0): Linear(in_features=1024, out_features=2048, bias=True)
    (1): GELU(approximate='none')
    (2): Linear(in_features=2048, out_features=2048, bias=True)
  )
)
current file path llava/llava/model/language_model/llava_llama.py
def LlavaLlamaForCausalLM.get_model(self)
self
 <class '__main__.LlavaLlamaForCausalLM'>
self.model (return)
 LlavaLlamaModel(
  (embed_tokens): Embedding(32000, 2048, padding_idx=0)
  (layers): ModuleList(
    (0-21): 22 x LlamaDecoderLayer(
      (self_attn): LlamaAttention(
        (q_proj): Linear(in_features=2048, out_features=2048, bias=False)
        (k_proj): Linear(in_features=2048, out_features=256, bias=False)
        (v_proj): Linear(in_features=2048, out_features=256, bias=False)
        (o_proj): Linear(in_features=2048, out_features=2048, bias=False)
        (rotary_emb): LlamaRotaryEmbedding()
      )
      (mlp): LlamaMLP(
        (gate_proj): Linear(in_features=2048, out_features=5632, bias=False)
        (up_proj): Linear(in_features=2048, out_features=5632, bias=False)
        (down_proj): Linear(in_features=5632, out_features=2048, bias=False)
        (act_fn): SiLUActivation()
      )
      (input_layernorm): LlamaRMSNorm()
      (post_attention_layernorm): LlamaRMSNorm()
    )
  )
  (norm): LlamaRMSNorm()
  (vision_tower): CLIPVisionTower(
    (vision_tower): CLIPVisionModel(
      (vision_model): CLIPVisionTransformer(
        (embeddings): CLIPVisionEmbeddings(
          (patch_embedding): Conv2d(3, 1024, kernel_size=(14, 14), stride=(14, 14), bias=False)
          (position_embedding): Embedding(577, 1024)
        )
        (pre_layrnorm): LayerNorm((1024,), eps=1e-05, elementwise_affine=True)
        (encoder): CLIPEncoder(
          (layers): ModuleList(
            (0-23): 24 x CLIPEncoderLayer(
              (self_attn): CLIPAttention(
                (k_proj): Linear(in_features=1024, out_features=1024, bias=True)
                (v_proj): Linear(in_features=1024, out_features=1024, bias=True)
                (q_proj): Linear(in_features=1024, out_features=1024, bias=True)
                (out_proj): Linear(in_features=1024, out_features=1024, bias=True)
              )
              (layer_norm1): LayerNorm((1024,), eps=1e-05, elementwise_affine=True)
              (mlp): CLIPMLP(
                (activation_fn): QuickGELUActivation()
                (fc1): Linear(in_features=1024, out_features=4096, bias=True)
                (fc2): Linear(in_features=4096, out_features=1024, bias=True)
              )
              (layer_norm2): LayerNorm((1024,), eps=1e-05, elementwise_affine=True)
            )
          )
        )
        (post_layernorm): LayerNorm((1024,), eps=1e-05, elementwise_affine=True)
      )
    )
  )
  (mm_projector): Sequential(
    (0): Linear(in_features=1024, out_features=2048, bias=True)
    (1): GELU(approximate='none')
    (2): Linear(in_features=2048, out_features=2048, bias=True)
  )
)
model.get_model().mm_projector.parameters() <generator object Module.parameters at 0x78fb79913290>
current file path llava/llava/model/language_model/llava_llama.py
def LlavaLlamaForCausalLM.get_model(self)
self
 <class '__main__.LlavaLlamaForCausalLM'>
self.model (return)
 LlavaLlamaModel(
  (embed_tokens): Embedding(32000, 2048, padding_idx=0)
  (layers): ModuleList(
    (0-21): 22 x LlamaDecoderLayer(
      (self_attn): LlamaAttention(
        (q_proj): Linear(in_features=2048, out_features=2048, bias=False)
        (k_proj): Linear(in_features=2048, out_features=256, bias=False)
        (v_proj): Linear(in_features=2048, out_features=256, bias=False)
        (o_proj): Linear(in_features=2048, out_features=2048, bias=False)
        (rotary_emb): LlamaRotaryEmbedding()
      )
      (mlp): LlamaMLP(
        (gate_proj): Linear(in_features=2048, out_features=5632, bias=False)
        (up_proj): Linear(in_features=2048, out_features=5632, bias=False)
        (down_proj): Linear(in_features=5632, out_features=2048, bias=False)
        (act_fn): SiLUActivation()
      )
      (input_layernorm): LlamaRMSNorm()
      (post_attention_layernorm): LlamaRMSNorm()
    )
  )
  (norm): LlamaRMSNorm()
  (vision_tower): CLIPVisionTower(
    (vision_tower): CLIPVisionModel(
      (vision_model): CLIPVisionTransformer(
        (embeddings): CLIPVisionEmbeddings(
          (patch_embedding): Conv2d(3, 1024, kernel_size=(14, 14), stride=(14, 14), bias=False)
          (position_embedding): Embedding(577, 1024)
        )
        (pre_layrnorm): LayerNorm((1024,), eps=1e-05, elementwise_affine=True)
        (encoder): CLIPEncoder(
          (layers): ModuleList(
            (0-23): 24 x CLIPEncoderLayer(
              (self_attn): CLIPAttention(
                (k_proj): Linear(in_features=1024, out_features=1024, bias=True)
                (v_proj): Linear(in_features=1024, out_features=1024, bias=True)
                (q_proj): Linear(in_features=1024, out_features=1024, bias=True)
                (out_proj): Linear(in_features=1024, out_features=1024, bias=True)
              )
              (layer_norm1): LayerNorm((1024,), eps=1e-05, elementwise_affine=True)
              (mlp): CLIPMLP(
                (activation_fn): QuickGELUActivation()
                (fc1): Linear(in_features=1024, out_features=4096, bias=True)
                (fc2): Linear(in_features=4096, out_features=1024, bias=True)
              )
              (layer_norm2): LayerNorm((1024,), eps=1e-05, elementwise_affine=True)
            )
          )
        )
        (post_layernorm): LayerNorm((1024,), eps=1e-05, elementwise_affine=True)
      )
    )
  )
  (mm_projector): Sequential(
    (0): Linear(in_features=1024, out_features=2048, bias=True)
    (1): GELU(approximate='none')
    (2): Linear(in_features=2048, out_features=2048, bias=True)
  )
)
model.get_model().mm_projector.parameters() <generator object Module.parameters at 0x78fb79913290>
current file path llava/llava/model/language_model/llava_llama.py
def LlavaLlamaForCausalLM.get_model(self)
self
 <class '__main__.LlavaLlamaForCausalLM'>
self.model (return)
 LlavaLlamaModel(
  (embed_tokens): Embedding(32000, 2048, padding_idx=0)
  (layers): ModuleList(
    (0-21): 22 x LlamaDecoderLayer(
      (self_attn): LlamaAttention(
        (q_proj): Linear(in_features=2048, out_features=2048, bias=False)
        (k_proj): Linear(in_features=2048, out_features=256, bias=False)
        (v_proj): Linear(in_features=2048, out_features=256, bias=False)
        (o_proj): Linear(in_features=2048, out_features=2048, bias=False)
        (rotary_emb): LlamaRotaryEmbedding()
      )
      (mlp): LlamaMLP(
        (gate_proj): Linear(in_features=2048, out_features=5632, bias=False)
        (up_proj): Linear(in_features=2048, out_features=5632, bias=False)
        (down_proj): Linear(in_features=5632, out_features=2048, bias=False)
        (act_fn): SiLUActivation()
      )
      (input_layernorm): LlamaRMSNorm()
      (post_attention_layernorm): LlamaRMSNorm()
    )
  )
  (norm): LlamaRMSNorm()
  (vision_tower): CLIPVisionTower(
    (vision_tower): CLIPVisionModel(
      (vision_model): CLIPVisionTransformer(
        (embeddings): CLIPVisionEmbeddings(
          (patch_embedding): Conv2d(3, 1024, kernel_size=(14, 14), stride=(14, 14), bias=False)
          (position_embedding): Embedding(577, 1024)
        )
        (pre_layrnorm): LayerNorm((1024,), eps=1e-05, elementwise_affine=True)
        (encoder): CLIPEncoder(
          (layers): ModuleList(
            (0-23): 24 x CLIPEncoderLayer(
              (self_attn): CLIPAttention(
                (k_proj): Linear(in_features=1024, out_features=1024, bias=True)
                (v_proj): Linear(in_features=1024, out_features=1024, bias=True)
                (q_proj): Linear(in_features=1024, out_features=1024, bias=True)
                (out_proj): Linear(in_features=1024, out_features=1024, bias=True)
              )
              (layer_norm1): LayerNorm((1024,), eps=1e-05, elementwise_affine=True)
              (mlp): CLIPMLP(
                (activation_fn): QuickGELUActivation()
                (fc1): Linear(in_features=1024, out_features=4096, bias=True)
                (fc2): Linear(in_features=4096, out_features=1024, bias=True)
              )
              (layer_norm2): LayerNorm((1024,), eps=1e-05, elementwise_affine=True)
            )
          )
        )
        (post_layernorm): LayerNorm((1024,), eps=1e-05, elementwise_affine=True)
      )
    )
  )
  (mm_projector): Sequential(
    (0): Linear(in_features=1024, out_features=2048, bias=True)
    (1): GELU(approximate='none')
    (2): Linear(in_features=2048, out_features=2048, bias=True)
  )
)
model.get_model().mm_projector.parameters() <generator object Module.parameters at 0x78fb79913290>
current file path llava/llava/model/language_model/llava_llama.py
def LlavaLlamaForCausalLM.get_model(self)
self
 <class '__main__.LlavaLlamaForCausalLM'>
self.model (return)
 LlavaLlamaModel(
  (embed_tokens): Embedding(32000, 2048, padding_idx=0)
  (layers): ModuleList(
    (0-21): 22 x LlamaDecoderLayer(
      (self_attn): LlamaAttention(
        (q_proj): Linear(in_features=2048, out_features=2048, bias=False)
        (k_proj): Linear(in_features=2048, out_features=256, bias=False)
        (v_proj): Linear(in_features=2048, out_features=256, bias=False)
        (o_proj): Linear(in_features=2048, out_features=2048, bias=False)
        (rotary_emb): LlamaRotaryEmbedding()
      )
      (mlp): LlamaMLP(
        (gate_proj): Linear(in_features=2048, out_features=5632, bias=False)
        (up_proj): Linear(in_features=2048, out_features=5632, bias=False)
        (down_proj): Linear(in_features=5632, out_features=2048, bias=False)
        (act_fn): SiLUActivation()
      )
      (input_layernorm): LlamaRMSNorm()
      (post_attention_layernorm): LlamaRMSNorm()
    )
  )
  (norm): LlamaRMSNorm()
  (vision_tower): CLIPVisionTower(
    (vision_tower): CLIPVisionModel(
      (vision_model): CLIPVisionTransformer(
        (embeddings): CLIPVisionEmbeddings(
          (patch_embedding): Conv2d(3, 1024, kernel_size=(14, 14), stride=(14, 14), bias=False)
          (position_embedding): Embedding(577, 1024)
        )
        (pre_layrnorm): LayerNorm((1024,), eps=1e-05, elementwise_affine=True)
        (encoder): CLIPEncoder(
          (layers): ModuleList(
            (0-23): 24 x CLIPEncoderLayer(
              (self_attn): CLIPAttention(
                (k_proj): Linear(in_features=1024, out_features=1024, bias=True)
                (v_proj): Linear(in_features=1024, out_features=1024, bias=True)
                (q_proj): Linear(in_features=1024, out_features=1024, bias=True)
                (out_proj): Linear(in_features=1024, out_features=1024, bias=True)
              )
              (layer_norm1): LayerNorm((1024,), eps=1e-05, elementwise_affine=True)
              (mlp): CLIPMLP(
                (activation_fn): QuickGELUActivation()
                (fc1): Linear(in_features=1024, out_features=4096, bias=True)
                (fc2): Linear(in_features=4096, out_features=1024, bias=True)
              )
              (layer_norm2): LayerNorm((1024,), eps=1e-05, elementwise_affine=True)
            )
          )
        )
        (post_layernorm): LayerNorm((1024,), eps=1e-05, elementwise_affine=True)
      )
    )
  )
  (mm_projector): Sequential(
    (0): Linear(in_features=1024, out_features=2048, bias=True)
    (1): GELU(approximate='none')
    (2): Linear(in_features=2048, out_features=2048, bias=True)
  )
)
model.get_model().mm_projector.parameters() <generator object Module.parameters at 0x78fb79913290>
【EXIT】if model_args.tune_mm_mlp_adapter:
【COND】 freeze_mm_mlp_adapter=False
【COND】 bits=16
model_args.mm_use_im_start_end False
training_args.mm_projector_lr None
training_args.use_im_start_end False
model_args.mm_use_im_patch_token False
current file path llava/model/llava_arch.py
…
          [ 0.9656,  0.9656,  0.9656,  ...,  0.7523,  0.8092,  0.8377],
          ...,
          [-0.3711, -0.3853, -0.3995,  ..., -0.4279, -0.4279, -0.4279],
          [-0.3711, -0.3711, -0.3853,  ..., -0.4279, -0.4279, -0.4279],
          [-0.3853, -0.3711, -0.3711,  ..., -0.4279, -0.4279, -0.4279]]]])
image_sizes
 None
current file path llava/model/llava_arch.py
class LlavaMetaForCausalLM(ABC).get_vision_tower(self)
current file path llava/llava/model/language_model/llava_llama.py
def LlavaLlamaForCausalLM.get_model(self)
self
 <class '__main__.LlavaLlamaForCausalLM'>
self.model (return)
 LlavaLlamaModel(
  (embed_tokens): Embedding(32000, 2048, padding_idx=0)
  (layers): ModuleList(
    (0-21): 22 x LlamaDecoderLayer(
      (self_attn): LlamaAttention(
        (q_proj): Linear(in_features=2048, out_features=2048, bias=False)
        (k_proj): Linear(in_features=2048, out_features=256, bias=False)
        (v_proj): Linear(in_features=2048, out_features=256, bias=False)
        (o_proj): Linear(in_features=2048, out_features=2048, bias=False)
        (rotary_emb): LlamaRotaryEmbedding()
      )
      (mlp): LlamaMLP(
        (gate_proj): Linear(in_features=2048, out_features=5632, bias=False)
        (up_proj): Linear(in_features=2048, out_features=5632, bias=False)
        (down_proj): Linear(in_features=5632, out_features=2048, bias=False)
        (act_fn): SiLUActivation()
      )
      (input_layernorm): LlamaRMSNorm()
      (post_attention_layernorm): LlamaRMSNorm()
    )
  )
  (norm): LlamaRMSNorm()
  (vision_tower): CLIPVisionTower(
    (vision_tower): CLIPVisionModel(
      (vision_model): CLIPVisionTransformer(
        (embeddings): CLIPVisionEmbeddings(
          (patch_embedding): Conv2d(3, 1024, kernel_size=(14, 14), stride=(14, 14), bias=False)
          (position_embedding): Embedding(577, 1024)
        )
        (pre_layrnorm): LayerNorm((1024,), eps=1e-05, elementwise_affine=True)
        (encoder): CLIPEncoder(
          (layers): ModuleList(
            (0-23): 24 x CLIPEncoderLayer(
              (self_attn): CLIPAttention(
                (k_proj): Linear(in_features=1024, out_features=1024, bias=True)
                (v_proj): Linear(in_features=1024, out_features=1024, bias=True)
                (q_proj): Linear(in_features=1024, out_features=1024, bias=True)
                (out_proj): Linear(in_features=1024, out_features=1024, bias=True)
              )
              (layer_norm1): LayerNorm((1024,), eps=1e-05, elementwise_affine=True)
              (mlp): CLIPMLP(
                (activation_fn): QuickGELUActivation()
                (fc1): Linear(in_features=1024, out_features=4096, bias=True)
                (fc2): Linear(in_features=4096, out_features=1024, bias=True)
              )
              (layer_norm2): LayerNorm((1024,), eps=1e-05, elementwise_affine=True)
            )
          )
        )
        (post_layernorm): LayerNorm((1024,), eps=1e-05, elementwise_affine=True)
      )
    )
  )
  (mm_projector): Sequential(
    (0): Linear(in_features=1024, out_features=2048, bias=True)
    (1): GELU(approximate='none')
    (2): Linear(in_features=2048, out_features=2048, bias=True)
  )
)
current file path llava/model/llava_arch.py
def get_vision_tower(self)
vision_tower (raw)
 CLIPVisionTower(
  (vision_tower): CLIPVisionModel(
    (vision_model): CLIPVisionTransformer(
      (embeddings): CLIPVisionEmbeddings(
        (patch_embedding): Conv2d(3, 1024, kernel_size=(14, 14), stride=(14, 14), bias=False)
        (position_embedding): Embedding(577, 1024)
      )
      (pre_layrnorm): LayerNorm((1024,), eps=1e-05, elementwise_affine=True)
      (encoder): CLIPEncoder(
        (layers): ModuleList(
          (0-23): 24 x CLIPEncoderLayer(
            (self_attn): CLIPAttention(
              (k_proj): Linear(in_features=1024, out_features=1024, bias=True)
              (v_proj): Linear(in_features=1024, out_features=1024, bias=True)
              (q_proj): Linear(in_features=1024, out_features=1024, bias=True)
              (out_proj): Linear(in_features=1024, out_features=1024, bias=True)
            )
            (layer_norm1): LayerNorm((1024,), eps=1e-05, elementwise_affine=True)
            (mlp): CLIPMLP(
              (activation_fn): QuickGELUActivation()
              (fc1): Linear(in_features=1024, out_features=4096, bias=True)
              (fc2): Linear(in_features=4096, out_features=1024, bias=True)
            )
            (layer_norm2): LayerNorm((1024,), eps=1e-05, elementwise_affine=True)
          )
        )
      )
      (post_layernorm): LayerNorm((1024,), eps=1e-05, elementwise_affine=True)
    )
  )
)
type(vision_tower)
 <class '__main__.CLIPVisionTower'>
【COND】 type_vision_tower_is_list=False
vision_tower (return)
 CLIPVisionTower(
  (vision_tower): CLIPVisionModel(
    (vision_model): CLIPVisionTransformer(
      (embeddings): CLIPVisionEmbeddings(
        (patch_embedding): Conv2d(3, 1024, kernel_size=(14, 14), stride=(14, 14), bias=False)
        (position_embedding): Embedding(577, 1024)
      )
      (pre_layrnorm): LayerNorm((1024,), eps=1e-05, elementwise_affine=True)
      (encoder): CLIPEncoder(
        (layers): ModuleList(
          (0-23): 24 x CLIPEncoderLayer(
            (self_attn): CLIPAttention(
              (k_proj): Linear(in_features=1024, out_features=1024, bias=True)
              (v_proj): Linear(in_features=1024, out_features=1024, bias=True)
              (q_proj): Linear(in_features=1024, out_features=1024, bias=True)
              (out_proj): Linear(in_features=1024, out_features=1024, bias=True)
            )
            (layer_norm1): LayerNorm((1024,), eps=1e-05, elementwise_affine=True)
            (mlp): CLIPMLP(
              (activation_fn): QuickGELUActivation()
              (fc1): Linear(in_features=1024, out_features=4096, bias=True)
              (fc2): Linear(in_features=4096, out_features=1024, bias=True)
            )
            (layer_norm2): LayerNorm((1024,), eps=1e-05, elementwise_affine=True)
          )
        )
      )
      (post_layernorm): LayerNorm((1024,), eps=1e-05, elementwise_affine=True)
    )
  )
)
LlavaMetaForCausalLM(ABC).get_vision_tower(self) result (return)
 CLIPVisionTower(
  (vision_tower): CLIPVisionModel(
    (vision_model): CLIPVisionTransformer(
      (embeddings): CLIPVisionEmbeddings(
        (patch_embedding): Conv2d(3, 1024, kernel_size=(14, 14), stride=(14, 14), bias=False)
        (position_embedding): Embedding(577, 1024)
      )
      (pre_layrnorm): LayerNorm((1024,), eps=1e-05, elementwise_affine=True)
      (encoder): CLIPEncoder(
        (layers): ModuleList(
          (0-23): 24 x CLIPEncoderLayer(
            (self_attn): CLIPAttention(
              (k_proj): Linear(in_features=1024, out_features=1024, bias=True)
              (v_proj): Linear(in_features=1024, out_features=1024, bias=True)
              (q_proj): Linear(in_features=1024, out_features=1024, bias=True)
              (out_proj): Linear(in_features=1024, out_features=1024, bias=True)
            )
            (layer_norm1): LayerNorm((1024,), eps=1e-05, elementwise_affine=True)
            (mlp): CLIPMLP(
              (activation_fn): QuickGELUActivation()
              (fc1): Linear(in_features=1024, out_features=4096, bias=True)
              (fc2): Linear(in_features=4096, out_features=1024, bias=True)
            )
            (layer_norm2): LayerNorm((1024,), eps=1e-05, elementwise_affine=True)
          )
        )
      )
      (post_layernorm): LayerNorm((1024,), eps=1e-05, elementwise_affine=True)
    )
  )
)
vision_tower
 CLIPVisionTower(
  (vision_tower): CLIPVisionModel(
    (vision_model): CLIPVisionTransformer(
      (embeddings): CLIPVisionEmbeddings(
        (patch_embedding): Conv2d(3, 1024, kernel_size=(14, 14), stride=(14, 14), bias=False)
        (position_embedding): Embedding(577, 1024)
      )
      (pre_layrnorm): LayerNorm((1024,), eps=1e-05, elementwise_affine=True)
      (encoder): CLIPEncoder(
        (layers): ModuleList(
          (0-23): 24 x CLIPEncoderLayer(
            (self_attn): CLIPAttention(
              (k_proj): Linear(in_features=1024, out_features=1024, bias=True)
              (v_proj): Linear(in_features=1024, out_features=1024, bias=True)
              (q_proj): Linear(in_features=1024, out_features=1024, bias=True)
              (out_proj): Linear(in_features=1024, out_features=1024, bias=True)
            )
            (layer_norm1): LayerNorm((1024,), eps=1e-05, elementwise_affine=True)
            (mlp): CLIPMLP(
              (activation_fn): QuickGELUActivation()
              (fc1): Linear(in_features=1024, out_features=4096, bias=True)
              (fc2): Linear(in_features=4096, out_features=1024, bias=True)
            )
            (layer_norm2): LayerNorm((1024,), eps=1e-05, elementwise_affine=True)
          )
        )
      )
      (post_layernorm): LayerNorm((1024,), eps=1e-05, elementwise_affine=True)
    )
  )
)
【COND】 vision_tower_is_None=False images_is_None=False input_ids_shape_1_eq_1=False
【COND】type(images)
 <class 'torch.Tensor'>
【COND】images.ndim
 4
【ENTER】else of if type(images) is list or images.ndim == 5:
current file path llava/model/llava_arch.py
def LlavaMetaForCausalLM(ABC).encode_images(self, images)
images
 tensor([[[[ 0.0325,  0.0325,  0.0325,  ..., -0.7120, -0.3616, -0.1280],
…
         [[ 0.9656,  0.9656,  0.9656,  ...,  0.0982,  0.4537,  0.6670],
          [ 0.9656,  0.9656,  0.9656,  ...,  0.3968,  0.6101,  0.7523],
          [ 0.9656,  0.9656,  0.9656,  ...,  0.7523,  0.8092,  0.8377],
          ...,
          [-0.3711, -0.3853, -0.3995,  ..., -0.4279, -0.4279, -0.4279],
          [-0.3711, -0.3711, -0.3853,  ..., -0.4279, -0.4279, -0.4279],
          [-0.3853, -0.3711, -0.3711,  ..., -0.4279, -0.4279, -0.4279]]]])
current file path llava/llava/model/language_model/llava_llama.py
def LlavaLlamaForCausalLM.get_model(self)
self
 <class '__main__.LlavaLlamaForCausalLM'>
self.model (return)
 LlavaLlamaModel(
  (embed_tokens): Embedding(32000, 2048, padding_idx=0)
  (layers): ModuleList(
    (0-21): 22 x LlamaDecoderLayer(
      (self_attn): LlamaAttention(
        (q_proj): Linear(in_features=2048, out_features=2048, bias=False)
        (k_proj): Linear(in_features=2048, out_features=256, bias=False)
        (v_proj): Linear(in_features=2048, out_features=256, bias=False)
        (o_proj): Linear(in_features=2048, out_features=2048, bias=False)
        (rotary_emb): LlamaRotaryEmbedding()
      )
      (mlp): LlamaMLP(
        (gate_proj): Linear(in_features=2048, out_features=5632, bias=False)
        (up_proj): Linear(in_features=2048, out_features=5632, bias=False)
        (down_proj): Linear(in_features=5632, out_features=2048, bias=False)
        (act_fn): SiLUActivation()
      )
      (input_layernorm): LlamaRMSNorm()
      (post_attention_layernorm): LlamaRMSNorm()
    )
  )
  (norm): LlamaRMSNorm()
  (vision_tower): CLIPVisionTower(
    (vision_tower): CLIPVisionModel(
      (vision_model): CLIPVisionTransformer(
        (embeddings): CLIPVisionEmbeddings(
          (patch_embedding): Conv2d(3, 1024, kernel_size=(14, 14), stride=(14, 14), bias=False)
          (position_embedding): Embedding(577, 1024)
        )
        (pre_layrnorm): LayerNorm((1024,), eps=1e-05, elementwise_affine=True)
        (encoder): CLIPEncoder(
          (layers): ModuleList(
            (0-23): 24 x CLIPEncoderLayer(
              (self_attn): CLIPAttention(
                (k_proj): Linear(in_features=1024, out_features=1024, bias=True)
                (v_proj): Linear(in_features=1024, out_features=1024, bias=True)
                (q_proj): Linear(in_features=1024, out_features=1024, bias=True)
                (out_proj): Linear(in_features=1024, out_features=1024, bias=True)
              )
              (layer_norm1): LayerNorm((1024,), eps=1e-05, elementwise_affine=True)
              (mlp): CLIPMLP(
                (activation_fn): QuickGELUActivation()
                (fc1): Linear(in_features=1024, out_features=4096, bias=True)
                (fc2): Linear(in_features=4096, out_features=1024, bias=True)
              )
              (layer_norm2): LayerNorm((1024,), eps=1e-05, elementwise_affine=True)
            )
          )
        )
        (post_layernorm): LayerNorm((1024,), eps=1e-05, elementwise_affine=True)
      )
    )
  )
  (mm_projector): Sequential(
    (0): Linear(in_features=1024, out_features=2048, bias=True)
    (1): GELU(approximate='none')
    (2): Linear(in_features=2048, out_features=2048, bias=True)
  )
)
current file path llava/model/llava_arch.py
def get_vision_tower(self)
vision_tower (raw)
 CLIPVisionTower(
  (vision_tower): CLIPVisionModel(
    (vision_model): CLIPVisionTransformer(
      (embeddings): CLIPVisionEmbeddings(
        (patch_embedding): Conv2d(3, 1024, kernel_size=(14, 14), stride=(14, 14), bias=False)
        (position_embedding): Embedding(577, 1024)
      )
      (pre_layrnorm): LayerNorm((1024,), eps=1e-05, elementwise_affine=True)
      (encoder): CLIPEncoder(
        (layers): ModuleList(
          (0-23): 24 x CLIPEncoderLayer(
            (self_attn): CLIPAttention(
              (k_proj): Linear(in_features=1024, out_features=1024, bias=True)
              (v_proj): Linear(in_features=1024, out_features=1024, bias=True)
              (q_proj): Linear(in_features=1024, out_features=1024, bias=True)
              (out_proj): Linear(in_features=1024, out_features=1024, bias=True)
            )
            (layer_norm1): LayerNorm((1024,), eps=1e-05, elementwise_affine=True)
            (mlp): CLIPMLP(
              (activation_fn): QuickGELUActivation()
              (fc1): Linear(in_features=1024, out_features=4096, bias=True)
              (fc2): Linear(in_features=4096, out_features=1024, bias=True)
            )
            (layer_norm2): LayerNorm((1024,), eps=1e-05, elementwise_affine=True)
          )
        )
      )
      (post_layernorm): LayerNorm((1024,), eps=1e-05, elementwise_affine=True)
    )
  )
)
type(vision_tower)
 <class '__main__.CLIPVisionTower'>
【COND】 type_vision_tower_is_list=False
vision_tower (return)
 CLIPVisionTower(
  (vision_tower): CLIPVisionModel(
    (vision_model): CLIPVisionTransformer(
      (embeddings): CLIPVisionEmbeddings(
        (patch_embedding): Conv2d(3, 1024, kernel_size=(14, 14), stride=(14, 14), bias=False)
        (position_embedding): Embedding(577, 1024)
      )
      (pre_layrnorm): LayerNorm((1024,), eps=1e-05, elementwise_affine=True)
      (encoder): CLIPEncoder(
        (layers): ModuleList(
          (0-23): 24 x CLIPEncoderLayer(
            (self_attn): CLIPAttention(
              (k_proj): Linear(in_features=1024, out_features=1024, bias=True)
              (v_proj): Linear(in_features=1024, out_features=1024, bias=True)
              (q_proj): Linear(in_features=1024, out_features=1024, bias=True)
              (out_proj): Linear(in_features=1024, out_features=1024, bias=True)
            )
            (layer_norm1): LayerNorm((1024,), eps=1e-05, elementwise_affine=True)
            (mlp): CLIPMLP(
              (activation_fn): QuickGELUActivation()
              (fc1): Linear(in_features=1024, out_features=4096, bias=True)
              (fc2): Linear(in_features=4096, out_features=1024, bias=True)
            )
            (layer_norm2): LayerNorm((1024,), eps=1e-05, elementwise_affine=True)
          )
        )
      )
      (post_layernorm): LayerNorm((1024,), eps=1e-05, elementwise_affine=True)
    )
  )
)
current file path llava/llava/model/multimodal_encoder/clip_encoder.py
def CLIPVisionTower.forward(self, images)
images shape
 torch.Size([1, 3, 336, 336])
images
 tensor([[[[ 0.0325,  0.0325,  0.0325,  ..., -0.7120, -0.3616, -0.1280],
          [ 0.0325,  0.0325,  0.0325,  ..., -0.3908, -0.1718, -0.0259],
          [ 0.0325,  0.0325,  0.0325,  ..., -0.0113,  0.0471,  0.0909],
…
         [-0.3164,  0.9922,  0.3301,  ...,  0.4297, -0.2090, -0.7070],
         [ 1.2656, -0.0146, -0.6602,  ...,  0.2432,  0.3555,  0.3438],
         ...,
         [ 1.6094,  0.9805,  0.8906,  ..., -0.2812, -1.0391,  1.2031],
         [ 0.8398, -0.3633,  0.6953,  ..., -0.2754, -1.2266,  0.4453],
         [ 1.5391,  0.7812,  0.3848,  ..., -0.2246, -0.7266,  0.8047]]])
image_features.shape
 torch.Size([1, 576, 1024])
current file path llava/llava/model/language_model/llava_llama.py
def LlavaLlamaForCausalLM.get_model(self)
self
 <class '__main__.LlavaLlamaForCausalLM'>
self.model (return)
 LlavaLlamaModel(
  (embed_tokens): Embedding(32000, 2048, padding_idx=0)
  (layers): ModuleList(
    (0-21): 22 x LlamaDecoderLayer(
      (self_attn): LlamaAttention(
        (q_proj): Linear(in_features=2048, out_features=2048, bias=False)
        (k_proj): Linear(in_features=2048, out_features=256, bias=False)
        (v_proj): Linear(in_features=2048, out_features=256, bias=False)
        (o_proj): Linear(in_features=2048, out_features=2048, bias=False)
        (rotary_emb): LlamaRotaryEmbedding()
      )
      (mlp): LlamaMLP(
        (gate_proj): Linear(in_features=2048, out_features=5632, bias=False)
        (up_proj): Linear(in_features=2048, out_features=5632, bias=False)
        (down_proj): Linear(in_features=5632, out_features=2048, bias=False)
        (act_fn): SiLUActivation()
      )
      (input_layernorm): LlamaRMSNorm()
      (post_attention_layernorm): LlamaRMSNorm()
    )
  )
  (norm): LlamaRMSNorm()
  (vision_tower): CLIPVisionTower(
    (vision_tower): CLIPVisionModel(
      (vision_model): CLIPVisionTransformer(
        (embeddings): CLIPVisionEmbeddings(
          (patch_embedding): Conv2d(3, 1024, kernel_size=(14, 14), stride=(14, 14), bias=False)
          (position_embedding): Embedding(577, 1024)
        )
        (pre_layrnorm): LayerNorm((1024,), eps=1e-05, elementwise_affine=True)
        (encoder): CLIPEncoder(
          (layers): ModuleList(
            (0-23): 24 x CLIPEncoderLayer(
              (self_attn): CLIPAttention(
                (k_proj): Linear(in_features=1024, out_features=1024, bias=True)
                (v_proj): Linear(in_features=1024, out_features=1024, bias=True)
                (q_proj): Linear(in_features=1024, out_features=1024, bias=True)
                (out_proj): Linear(in_features=1024, out_features=1024, bias=True)
              )
              (layer_norm1): LayerNorm((1024,), eps=1e-05, elementwise_affine=True)
              (mlp): CLIPMLP(
                (activation_fn): QuickGELUActivation()
                (fc1): Linear(in_features=1024, out_features=4096, bias=True)
                (fc2): Linear(in_features=4096, out_features=1024, bias=True)
              )
              (layer_norm2): LayerNorm((1024,), eps=1e-05, elementwise_affine=True)
            )
          )
        )
        (post_layernorm): LayerNorm((1024,), eps=1e-05, elementwise_affine=True)
      )
    )
  )
  (mm_projector): Sequential(
    (0): Linear(in_features=1024, out_features=2048, bias=True)
    (1): GELU(approximate='none')
    (2): Linear(in_features=2048, out_features=2048, bias=True)
  )
)
`use_cache=True` is incompatible with gradient checkpointing. Setting `use_cache=False`...
image_features (return) shape
 torch.Size([1, 576, 2048])
image_features (return)
 tensor([[[ 0.0898,  0.0430, -0.0889,  ...,  0.1660, -0.0732, -0.0120],
         [-0.0435,  0.0300, -0.0217,  ..., -0.0062, -0.1621,  0.1230],
         [ 0.0344,  0.1689, -0.1279,  ...,  0.0069,  0.0737,  0.3105],
…
        [-7.6562, -7.6875,  4.0938,  ..., -5.2812, -6.6875, -4.4375],
        [-7.8125, -7.8438,  1.6172,  ..., -2.3594, -7.0000, -4.1875],
        [-7.7500, -7.5000,  1.9375,  ..., -2.3438, -7.1250, -4.1875]],
       grad_fn=<SliceBackward0>)
loss (return)  LlavaLlamaForCausalLM.forward 
 tensor(8.8422, grad_fn=<NllLossBackward0>)
 current file path llava/train/llava_trainer.py
def _save_checkpoint(self, model, trial, metrics=None)
self _save_checkpoint
 <__main__.LLaVATrainer object at 0x78fd3c9946a0>
model _save_checkpoint
 LlavaLlamaForCausalLM(
  (model): LlavaLlamaModel(
    (embed_tokens): Embedding(32000, 2048, padding_idx=0)
    (layers): ModuleList(
      (0-21): 22 x LlamaDecoderLayer(
        (self_attn): LlamaAttention(
          (q_proj): Linear(in_features=2048, out_features=2048, bias=False)
          (k_proj): Linear(in_features=2048, out_features=256, bias=False)
          (v_proj): Linear(in_features=2048, out_features=256, bias=False)
          (o_proj): Linear(in_features=2048, out_features=2048, bias=False)
          (rotary_emb): LlamaRotaryEmbedding()
        )
        (mlp): LlamaMLP(
          (gate_proj): Linear(in_features=2048, out_features=5632, bias=False)
          (up_proj): Linear(in_features=2048, out_features=5632, bias=False)
          (down_proj): Linear(in_features=5632, out_features=2048, bias=False)
          (act_fn): SiLUActivation()
        )
        (input_layernorm): LlamaRMSNorm()
        (post_attention_layernorm): LlamaRMSNorm()
      )
    )
    (norm): LlamaRMSNorm()
    (vision_tower): CLIPVisionTower(
      (vision_tower): CLIPVisionModel(
        (vision_model): CLIPVisionTransformer(
          (embeddings): CLIPVisionEmbeddings(
            (patch_embedding): Conv2d(3, 1024, kernel_size=(14, 14), stride=(14, 14), bias=False)
            (position_embedding): Embedding(577, 1024)
          )
          (pre_layrnorm): LayerNorm((1024,), eps=1e-05, elementwise_affine=True)
          (encoder): CLIPEncoder(
            (layers): ModuleList(
              (0-23): 24 x CLIPEncoderLayer(
                (self_attn): CLIPAttention(
                  (k_proj): Linear(in_features=1024, out_features=1024, bias=True)
                  (v_proj): Linear(in_features=1024, out_features=1024, bias=True)
                  (q_proj): Linear(in_features=1024, out_features=1024, bias=True)
                  (out_proj): Linear(in_features=1024, out_features=1024, bias=True)
                )
                (layer_norm1): LayerNorm((1024,), eps=1e-05, elementwise_affine=True)
                (mlp): CLIPMLP(
                  (activation_fn): QuickGELUActivation()
                  (fc1): Linear(in_features=1024, out_features=4096, bias=True)
                  (fc2): Linear(in_features=4096, out_features=1024, bias=True)
                )
                (layer_norm2): LayerNorm((1024,), eps=1e-05, elementwise_affine=True)
              )
            )
          )
          (post_layernorm): LayerNorm((1024,), eps=1e-05, elementwise_affine=True)
        )
      )
    )
    (mm_projector): Sequential(
      (0): Linear(in_features=1024, out_features=2048, bias=True)
      (1): GELU(approximate='none')
      (2): Linear(in_features=2048, out_features=2048, bias=True)
    )
  )
  (lm_head): Linear(in_features=2048, out_features=32000, bias=False)
)
trial _save_checkpoint
 None
metrics _save_checkpoint
 None
【COND】tune_mm_mlp_adapter=True
【ENTER】if getattr(self.args, 'tune_mm_mlp_adapter', False):
checkpoint_folder = f"{PREFIX_CHECKPOINT_DIR}-{self.state.global_step}"
 checkpoint-1
run_dir = self._get_output_dir(trial=trial) ./checkpoints/llava-TinyLlama-1.1B-Chat-v1.0
output_dir = os.path.join(run_dir, checkpoint_folder) ./checkpoints/llava-TinyLlama-1.1B-Chat-v1.0/checkpoint-1
…
