…
  "eos_token_id": 2,
  "hidden_act": "silu",
  "hidden_size": 2048,
  "initializer_range": 0.02,
  "intermediate_size": 5632,
  "max_position_embeddings": 2048,
  "model_type": "llava_llama",
  "num_attention_heads": 32,
  "num_hidden_layers": 22,
  "num_key_value_heads": 4,
  "pad_token_id": 0,
  "pretraining_tp": 1,
  "rms_norm_eps": 1e-05,
  "rope_scaling": null,
  "rope_theta": 10000.0,
  "tie_word_embeddings": false,
  "torch_dtype": "bfloat16",
  "transformers_version": "4.31.0",
  "use_cache": true,
  "vocab_size": 32000
}

【COND】 mm_vision_tower=False
self.model
 LlavaLlamaModel(
  (embed_tokens): Embedding(32000, 2048, padding_idx=0)
  (layers): ModuleList(
    (0-21): 22 x LlamaDecoderLayer(
      (self_attn): LlamaAttention(
        (q_proj): Linear(in_features=2048, out_features=2048, bias=False)
        (k_proj): Linear(in_features=2048, out_features=256, bias=False)
        (v_proj): Linear(in_features=2048, out_features=256, bias=False)
        (o_proj): Linear(in_features=2048, out_features=2048, bias=False)
        (rotary_emb): LlamaRotaryEmbedding()
      )
      (mlp): LlamaMLP(
        (gate_proj): Linear(in_features=2048, out_features=5632, bias=False)
        (up_proj): Linear(in_features=2048, out_features=5632, bias=False)
        (down_proj): Linear(in_features=5632, out_features=2048, bias=False)
        (act_fn): SiLUActivation()
      )
      (input_layernorm): LlamaRMSNorm()
      (post_attention_layernorm): LlamaRMSNorm()
    )
  )
  (norm): LlamaRMSNorm()
)
self.pretraining_tp
 1
self.vocab_size
 32000
self.lm_head
 Linear(in_features=2048, out_features=32000, bias=False)
Some weights of LlavaLlamaForCausalLM were not initialized from t
…
layers.6.self_attn.rotary_emb.inv_freq', 'model.layers.18.self_attn.rotary_emb.inv_freq', 'model.layers.7.self_attn.rotary_emb.inv_freq', 'model.layers.8.self_attn.rotary_emb.inv_freq', 'model.layers.2.self_attn.rotary_emb.inv_freq', 'model.layers.5.self_attn.rotary_emb.inv_freq', 'model.layers.13.self_attn.rotary_emb.inv_freq', 'model.layers.19.self_attn.rotary_emb.inv_freq']
You should probably TRAIN this model on a down-stream task to be able to use it for predictions and inference.
model defined as LlavaLlamaForCausalLM 
 LlavaLlamaForCausalLM(
  (model): LlavaLlamaModel(
    (embed_tokens): Embedding(32000, 2048, padding_idx=0)
    (layers): ModuleList(
      (0-21): 22 x LlamaDecoderLayer(
        (self_attn): LlamaAttention(
          (q_proj): Linear(in_features=2048, out_features=2048, bias=False)
          (k_proj): Linear(in_features=2048, out_features=256, bias=False)
          (v_proj): Linear(in_features=2048, out_features=256, bias=False)
          (o_proj): Linear(in_features=2048, out_features=2048, bias=False)
          (rotary_emb): LlamaRotaryEmbedding()
        )
        (mlp): LlamaMLP(
          (gate_proj): Linear(in_features=2048, out_features=5632, bias=False)
          (up_proj): Linear(in_features=2048, out_features=5632, bias=False)
          (down_proj): Linear(in_features=5632, out_features=2048, bias=False)
          (act_fn): SiLUActivation()
        )
        (input_layernorm): LlamaRMSNorm()
        (post_attention_layernorm): LlamaRMSNorm()
      )
    )
    (norm): LlamaRMSNorm()
  )
  (lm_head): Linear(in_features=2048, out_features=32000, bias=False)
)
【EXIT】else of if 'mpt' in model_args.model_name_or_path:
【EXIT】if model_args.vision_tower is not None:
model.config.use_cache
 False
【COND】 freeze_backbone=False
【COND】 bits=16
【COND】 gradient_checkpointing=True
【ENTER】if training_args.gradient_checkpointing:
【COND】 has_enable_input_require_grads=True
【ENTER】if hasattr(model, 'enable_input_require_grads'):
…
  },
  "do_center_crop": true,
  "do_convert_rgb": true,
  "do_normalize": true,
  "do_rescale": true,
  "do_resize": true,
  "feature_extractor_type": "CLIPFeatureExtractor",
  "image_mean": [
    0.48145466,
    0.4578275,
    0.40821073
  ],
  "image_processor_type": "CLIPImageProcessor",
  "image_std": [
    0.26862954,
    0.26130258,
    0.27577711
  ],
  "resample": 3,
  "rescale_factor": 0.00392156862745098,
  "size": {
    "shortest_edge": 336
  }
}

self.vision_tower
 CLIPVisionModel(
  (vision_model): CLIPVisionTransformer(
    (embeddings): CLIPVisionEmbeddings(
      (patch_embedding): Conv2d(3, 1024, kernel_size=(14, 14), stride=(14, 14), bias=False)
      (position_embedding): Embedding(577, 1024)
    )
    (pre_layrnorm): LayerNorm((1024,), eps=1e-05, elementwise_affine=True)
    (encoder): CLIPEncoder(
      (layers): ModuleList(
        (0-23): 24 x CLIPEncoderLayer(
          (self_attn): CLIPAttention(
            (k_proj): Linear(in_features=1024, out_features=1024, bias=True)
            (v_proj): Linear(in_features=1024, out_features=1024, bias=True)
            (q_proj): Linear(in_features=1024, out_features=1024, bias=True)
            (out_proj): Linear(in_features=1024, out_features=1024, bias=True)
          )
          (layer_norm1): LayerNorm((1024,), eps=1e-05, elementwise_affine=True)
          (mlp): CLIPMLP(
            (activation_fn): QuickGELUActivation()
            (fc1): Linear(in_features=1024, out_features=4096, bias=True)
            (fc2): Linear(in_features=4096, out_features=1024, bias=True)
          )
          (layer_norm2): LayerNorm((1024,), eps=1e-05, elementwise_affine=True)
        )
      )
    )
    (post_layernorm): LayerNorm((1024,), eps=1e-05, elementwise_affine=True)
  )
)
self.is_loaded
 True
result (return)
 CLIPVisionTower(
  (vision_tower): CLIPVisionModel(
    (vision_model): CLIPVisionTransformer(
      (embeddings): CLIPVisionEmbeddings(
        (patch_embedding): Conv2d(3, 1024, kernel_size=(14, 14), stride=(14, 14), bias=False)
        (position_embedding): Embedding(577, 1024)
      )
      (pre_layrnorm): LayerNorm((1024,), eps=1e-05, elementwise_affine=True)
      (encoder): CLIPEncoder(
        (layers): ModuleList(
          (0-23): 24 x CLIPEncoderLayer(
            (self_attn): CLIPAttention(
              (k_proj): Linear(in_features=1024, out_features=1024, bias=True)
              (v_proj): Linear(in_features=1024, out_features=1024, bias=True)
              (q_proj): Linear(in_features=1024, out_features=1024, bias=True)
              (out_proj): Linear(in_features=1024, out_features=1024, bias=True)
            )
            (layer_norm1): LayerNorm((1024,), eps=1e-05, elementwise_affine=True)
            (mlp): CLIPMLP(
              (activation_fn): QuickGELUActivation()
              (fc1): Linear(in_features=1024, out_features=4096, bias=True)
              (fc2): Linear(in_features=4096, out_features=1024, bias=True)
            )
            (layer_norm2): LayerNorm((1024,), eps=1e-05, elementwise_affine=True)
          )
        )
      )
      (post_layernorm): LayerNorm((1024,), eps=1e-05, elementwise_affine=True)
    )
  )
)
【EXIT】if is_absolute_path_exists or vision_tower.startswith('openai') or vision_tower.startswith('laion') or 'ShareGPT4V' in vision_tower:
vision_tower after build_vision_tower
 CLIPVisionTower(
  (vision_tower): CLIPVisionModel(
    (vision_model): CLIPVisionTransformer(
      (embeddings): CLIPVisionEmbeddings(
        (patch_embedding): Conv2d(3, 1024, kernel_size=(14, 14), stride=(14, 14), bias=False)
        (position_embedding): Embedding(577, 1024)
      )
      (pre_layrnorm): LayerNorm((1024,), eps=1e-05, elementwise_affine=True)
      (encoder): CLIPEncoder(
        (layers): ModuleList(
          (0-23): 24 x CLIPEncoderLayer(
            (self_attn): CLIPAttention(
              (k_proj): Linear(in_features=1024, out_features=1024, bias=True)
              (v_proj): Linear(in_features=1024, out_features=1024, bias=True)
              (q_proj): Linear(in_features=1024, out_features=1024, bias=True)
              (out_proj): Linear(in_features=1024, out_features=1024, bias=True)
            )
            (layer_norm1): LayerNorm((1024,), eps=1e-05, elementwise_affine=True)
            (mlp): CLIPMLP(
              (activation_fn): QuickGELUActivation()
              (fc1): Linear(in_features=1024, out_features=4096, bias=True)
              (fc2): Linear(in_features=4096, out_features=1024, bias=True)
            )
            (layer_norm2): LayerNorm((1024,), eps=1e-05, elementwise_affine=True)
          )
        )
      )
      (post_layernorm): LayerNorm((1024,), eps=1e-05, elementwise_affine=True)
    )
  )
)
【COND】 fsdp
 []
【COND】 fsdp_is_not_None=True len_fsdp=0
【COND】 else_fsdp_is_not_None_and_len_fsdp_gt_0=True
【ENTER】else of if fsdp is not None and len(fsdp) > 0:
self.vision_tower
 CLIPVisionTower(
  (vision_tower): CLIPVisionModel(
    (vision_model): CLIPVisionTransformer(
      (embeddings): CLIPVisionEmbeddings(
        (patch_embedding): Conv2d(3, 1024, kernel_size=(14, 14), stride=(14, 14), bias=False)
        (position_embedding): Embedding(577, 1024)
      )
      (pre_layrnorm): LayerNorm((1024,), eps=1e-05, elementwise_affine=True)
      (encoder): CLIPEncoder(
        (layers): ModuleList(
          (0-23): 24 x CLIPEncoderLayer(
            (self_attn): CLIPAttention(
              (k_proj): Linear(in_features=1024, out_features=1024, bias=True)
              (v_proj): Linear(in_features=1024, out_features=1024, bias=True)
              (q_proj): Linear(in_features=1024, out_features=1024, bias=True)
              (out_proj): Linear(in_features=1024, out_features=1024, bias=True)
            )
            (layer_norm1): LayerNorm((1024,), eps=1e-05, elementwise_affine=True)
            (mlp): CLIPMLP(
              (activation_fn): QuickGELUActivation()
              (fc1): Linear(in_features=1024, out_features=4096, bias=True)
              (fc2): Linear(in_features=4096, out_features=1024, bias=True)
            )
            (layer_norm2): LayerNorm((1024,), eps=1e-05, elementwise_affine=True)
          )
        )
      )
      (post_layernorm): LayerNorm((1024,), eps=1e-05, elementwise_affine=True)
    )
  )
)
【EXIT】else of if fsdp is not None and len(fsdp) > 0:
【EXIT】if self.get_vision_tower() is None:
self.config.use_mm_proj set to True
self.config.mm_projector_type
 mlp2x_gelu
current file path llava/llava/model/multimodal_encoder/clip_encoder.py
def CLIPVisionTower.hidden_size(self)
self
 <class 'llava.model.multimodal_encoder.clip_encoder.CLIPVisionTower'>
…
  "transformers_version": "4.31.0",
  "use_cache": false,
  "use_mm_proj": true,
  "vocab_size": 32000
}

delay_load
 False
kwargs
 {}
projector_type from config
 mlp2x_gelu
【COND】 projector_type
 mlp2x_gelu
【COND】mlp_gelu_match
 <re.Match object; span=(0, 10), match='mlp2x_gelu'>
【ENTER】if mlp_gelu_match:
mlp_depth from mlp_gelu_match.group(1)
 2
modules after first Linear
 [Linear(in_features=1024, out_features=2048, bias=True)]
modules before Sequential
 [Linear(in_features=1024, out_features=2048, bias=True), GELU(approximate='none'), Linear(in_features=2048, out_features=2048, bias=True)]
result (return)
 Sequential(
  (0): Linear(in_features=1024, out_features=2048, bias=True)
  (1): GELU(approximate='none')
  (2): Linear(in_features=2048, out_features=2048, bias=True)
)
【EXIT】if mlp_gelu_match:
self.mm_projector after build_vision_projector
 Sequential(
  (0): Linear(in_features=1024, out_features=2048, bias=True)
  (1): GELU(approximate='none')
  (2): Linear(in_features=2048, out_features=2048, bias=True)
)
mm_patch_merge_type
 flat
【COND】 unpad_in_mm_patch_merge_type=False
【EXIT】if getattr(self, 'mm_projector', None) is None:
【COND】 pretrain_mm_mlp_adapter_is_not_None=False
current file path llava/model/llava_arch.py
class LlavaMetaForCausalLM(ABC).get_vision_tower(self)
current file path llava/llava/model/language_model/llava_llama.py
def LlavaLlamaForCausalLM.get_model(self)
self
 <class 'llava.model.language_model.llava_llama.LlavaLlamaForCausalLM'>
self.model (return)
 LlavaLlamaModel(
  (embed_tokens): Embedding(32000, 2048, padding_idx=0)
  (layers): ModuleList(
    (0-21): 22 x LlamaDecoderLayer(
      (self_attn): LlamaAttention(
        (q_proj): Linear(in_features=2048, out_features=2048, bias=False)
        (k_proj): Linear(in_features=2048, out_features=256, bias=False)
        (v_proj): Linear(in_features=2048, out_features=256, bias=False)
        (o_proj): Linear(in_features=2048, out_features=2048, bias=False)
        (rotary_emb): LlamaRotaryEmbedding()
      )
      (mlp): LlamaMLP(
        (gate_proj): Linear(in_features=2048, out_features=5632, bias=False)
        (up_proj): Linear(in_features=2048, out_features=5632, bias=False)
        (down_proj): Linear(in_features=5632, out_features=2048, bias=False)
        (act_fn): SiLUActivation()
      )
      (input_layernorm): LlamaRMSNorm()
      (post_attention_layernorm): LlamaRMSNorm()
    )
  )
  (norm): LlamaRMSNorm()
  (vision_tower): CLIPVisionTower(
    (vision_tower): CLIPVisionModel(
      (vision_model): CLIPVisionTransformer(
        (embeddings): CLIPVisionEmbeddings(
          (patch_embedding): Conv2d(3, 1024, kernel_size=(14, 14), stride=(14, 14), bias=False)
          (position_embedding): Embedding(577, 1024)
        )
        (pre_layrnorm): LayerNorm((1024,), eps=1e-05, elementwise_affine=True)
        (encoder): CLIPEncoder(
          (layers): ModuleList(
            (0-23): 24 x CLIPEncoderLayer(
              (self_attn): CLIPAttention(
                (k_proj): Linear(in_features=1024, out_features=1024, bias=True)
                (v_proj): Linear(in_features=1024, out_features=1024, bias=True)
                (q_proj): Linear(in_features=1024, out_features=1024, bias=True)
                (out_proj): Linear(in_features=1024, out_features=1024, bias=True)
              )
              (layer_norm1): LayerNorm((1024,), eps=1e-05, elementwise_affine=True)
              (mlp): CLIPMLP(
                (activation_fn): QuickGELUActivation()
                (fc1): Linear(in_features=1024, out_features=4096, bias=True)
                (fc2): Linear(in_features=4096, out_features=1024, bias=True)
              )
              (layer_norm2): LayerNorm((1024,), eps=1e-05, elementwise_affine=True)
            )
          )
        )
        (post_layernorm): LayerNorm((1024,), eps=1e-05, elementwise_affine=True)
      )
    )
  )
  (mm_projector): Sequential(
    (0): Linear(in_features=1024, out_features=2048, bias=True)
    (1): GELU(approximate='none')
    (2): Linear(in_features=2048, out_features=2048, bias=True)
  )
)
current file path llava/model/llava_arch.py
def get_vision_tower(self)
vision_tower (raw)
 CLIPVisionTower(
  (vision_tower): CLIPVisionModel(
    (vision_model): CLIPVisionTransformer(
      (embeddings): CLIPVisionEmbeddings(
        (patch_embedding): Conv2d(3, 1024, kernel_size=(14, 14), stride=(14, 14), bias=False)
        (position_embedding): Embedding(577, 1024)
      )
      (pre_layrnorm): LayerNorm((1024,), eps=1e-05, elementwise_affine=True)
      (encoder): CLIPEncoder(
        (layers): ModuleList(
          (0-23): 24 x CLIPEncoderLayer(
            (self_attn): CLIPAttention(
              (k_proj): Linear(in_features=1024, out_features=1024, bias=True)
              (v_proj): Linear(in_features=1024, out_features=1024, bias=True)
              (q_proj): Linear(in_features=1024, out_features=1024, bias=True)
              (out_proj): Linear(in_features=1024, out_features=1024, bias=True)
            )
            (layer_norm1): LayerNorm((1024,), eps=1e-05, elementwise_affine=True)
            (mlp): CLIPMLP(
              (activation_fn): QuickGELUActivation()
              (fc1): Linear(in_features=1024, out_features=4096, bias=True)
              (fc2): Linear(in_features=4096, out_features=1024, bias=True)
            )
            (layer_norm2): LayerNorm((1024,), eps=1e-05, elementwise_affine=True)
          )
        )
      )
      (post_layernorm): LayerNorm((1024,), eps=1e-05, elementwise_affine=True)
    )
  )
)
type(vision_tower)
 <class 'llava.model.multimodal_encoder.clip_encoder.CLIPVisionTower'>
【COND】 type_vision_tower_is_list=False
vision_tower (return)
 CLIPVisionTower(
  (vision_tower): CLIPVisionModel(
    (vision_model): CLIPVisionTransformer(
      (embeddings): CLIPVisionEmbeddings(
        (patch_embedding): Conv2d(3, 1024, kernel_size=(14, 14), stride=(14, 14), bias=False)
        (position_embedding): Embedding(577, 1024)
      )
      (pre_layrnorm): LayerNorm((1024,), eps=1e-05, elementwise_affine=True)
      (encoder): CLIPEncoder(
        (layers): ModuleList(
          (0-23): 24 x CLIPEncoderLayer(
            (self_attn): CLIPAttention(
              (k_proj): Linear(in_features=1024, out_features=1024, bias=True)
              (v_proj): Linear(in_features=1024, out_features=1024, bias=True)
              (q_proj): Linear(in_features=1024, out_features=1024, bias=True)
              (out_proj): Linear(in_features=1024, out_features=1024, bias=True)
            )
            (layer_norm1): LayerNorm((1024,), eps=1e-05, elementwise_affine=True)
            (mlp): CLIPMLP(
              (activation_fn): QuickGELUActivation()
              (fc1): Linear(in_features=1024, out_features=4096, bias=True)
              (fc2): Linear(in_features=4096, out_features=1024, bias=True)
            )
            (layer_norm2): LayerNorm((1024,), eps=1e-05, elementwise_affine=True)
          )
        )
      )
      (post_layernorm): LayerNorm((1024,), eps=1e-05, elementwise_affine=True)
    )
  )
)
LlavaMetaForCausalLM(ABC).get_vision_tower(self) result (return)
 CLIPVisionTower(
  (vision_tower): CLIPVisionModel(
    (vision_model): CLIPVisionTransformer(
      (embeddings): CLIPVisionEmbeddings(
        (patch_embedding): Conv2d(3, 1024, kernel_size=(14, 14), stride=(14, 14), bias=False)
        (position_embedding): Embedding(577, 1024)
      )
      (pre_layrnorm): LayerNorm((1024,), eps=1e-05, elementwise_affine=True)
      (encoder): CLIPEncoder(
        (layers): ModuleList(
          (0-23): 24 x CLIPEncoderLayer(
            (self_attn): CLIPAttention(
              (k_proj): Linear(in_features=1024, out_features=1024, bias=True)
              (v_proj): Linear(in_features=1024, out_features=1024, bias=True)
              (q_proj): Linear(in_features=1024, out_features=1024, bias=True)
              (out_proj): Linear(in_features=1024, out_features=1024, bias=True)
            )
            (layer_norm1): LayerNorm((1024,), eps=1e-05, elementwise_affine=True)
            (mlp): CLIPMLP(
              (activation_fn): QuickGELUActivation()
              (fc1): Linear(in_features=1024, out_features=4096, bias=True)
              (fc2): Linear(in_features=4096, out_features=1024, bias=True)
            )
            (layer_norm2): LayerNorm((1024,), eps=1e-05, elementwise_affine=True)
          )
        )
      )
      (post_layernorm): LayerNorm((1024,), eps=1e-05, elementwise_affine=True)
    )
  )
)
【COND】 tune_mm_mlp_adapter=True
【ENTER】if model_args.tune_mm_mlp_adapter:
current file path llava/llava/model/language_model/llava_llama.py
def LlavaLlamaForCausalLM.get_model(self)
self
 <class 'llava.model.language_model.llava_llama.LlavaLlamaForCausalLM'>
self.model (return)
 LlavaLlamaModel(
  (embed_tokens): Embedding(32000, 2048, padding_idx=0)
  (layers): ModuleList(
    (0-21): 22 x LlamaDecoderLayer(
      (self_attn): LlamaAttention(
        (q_proj): Linear(in_features=2048, out_features=2048, bias=False)
        (k_proj): Linear(in_features=2048, out_features=256, bias=False)
        (v_proj): Linear(in_features=2048, out_features=256, bias=False)
        (o_proj): Linear(in_features=2048, out_features=2048, bias=False)
        (rotary_emb): LlamaRotaryEmbedding()
      )
      (mlp): LlamaMLP(
        (gate_proj): Linear(in_features=2048, out_features=5632, bias=False)
        (up_proj): Linear(in_features=2048, out_features=5632, bias=False)
        (down_proj): Linear(in_features=5632, out_features=2048, bias=False)
        (act_fn): SiLUActivation()
      )
      (input_layernorm): LlamaRMSNorm()
      (post_attention_layernorm): LlamaRMSNorm()
    )
  )
  (norm): LlamaRMSNorm()
  (vision_tower): CLIPVisionTower(
    (vision_tower): CLIPVisionModel(
      (vision_model): CLIPVisionTransformer(
        (embeddings): CLIPVisionEmbeddings(
          (patch_embedding): Conv2d(3, 1024, kernel_size=(14, 14), stride=(14, 14), bias=False)
          (position_embedding): Embedding(577, 1024)
        )
        (pre_layrnorm): LayerNorm((1024,), eps=1e-05, elementwise_affine=True)
        (encoder): CLIPEncoder(
          (layers): ModuleList(
            (0-23): 24 x CLIPEncoderLayer(
              (self_attn): CLIPAttention(
                (k_proj): Linear(in_features=1024, out_features=1024, bias=True)
                (v_proj): Linear(in_features=1024, out_features=1024, bias=True)
                (q_proj): Linear(in_features=1024, out_features=1024, bias=True)
                (out_proj): Linear(in_features=1024, out_features=1024, bias=True)
              )
              (layer_norm1): LayerNorm((1024,), eps=1e-05, elementwise_affine=True)
              (mlp): CLIPMLP(
                (activation_fn): QuickGELUActivation()
                (fc1): Linear(in_features=1024, out_features=4096, bias=True)
                (fc2): Linear(in_features=4096, out_features=1024, bias=True)
              )
              (layer_norm2): LayerNorm((1024,), eps=1e-05, elementwise_affine=True)
            )
          )
        )
        (post_layernorm): LayerNorm((1024,), eps=1e-05, elementwise_affine=True)
      )
    )
  )
  (mm_projector): Sequential(
    (0): Linear(in_features=1024, out_features=2048, bias=True)
    (1): GELU(approximate='none')
    (2): Linear(in_features=2048, out_features=2048, bias=True)
  )
)
current file path llava/llava/model/language_model/llava_llama.py
def LlavaLlamaForCausalLM.get_model(self)
self
 <class 'llava.model.language_model.llava_llama.LlavaLlamaForCausalLM'>
self.model (return)
 LlavaLlamaModel(
  (embed_tokens): Embedding(32000, 2048, padding_idx=0)
  (layers): ModuleList(
    (0-21): 22 x LlamaDecoderLayer(
      (self_attn): LlamaAttention(
        (q_proj): Linear(in_features=2048, out_features=2048, bias=False)
        (k_proj): Linear(in_features=2048, out_features=256, bias=False)
        (v_proj): Linear(in_features=2048, out_features=256, bias=False)
        (o_proj): Linear(in_features=2048, out_features=2048, bias=False)
        (rotary_emb): LlamaRotaryEmbedding()
      )
      (mlp): LlamaMLP(
        (gate_proj): Linear(in_features=2048, out_features=5632, bias=False)
        (up_proj): Linear(in_features=2048, out_features=5632, bias=False)
        (down_proj): Linear(in_features=5632, out_features=2048, bias=False)
        (act_fn): SiLUActivation()
      )
      (input_layernorm): LlamaRMSNorm()
      (post_attention_layernorm): LlamaRMSNorm()
    )
  )
  (norm): LlamaRMSNorm()
  (vision_tower): CLIPVisionTower(
    (vision_tower): CLIPVisionModel(
      (vision_model): CLIPVisionTransformer(
        (embeddings): CLIPVisionEmbeddings(
          (patch_embedding): Conv2d(3, 1024, kernel_size=(14, 14), stride=(14, 14), bias=False)
          (position_embedding): Embedding(577, 1024)
        )
        (pre_layrnorm): LayerNorm((1024,), eps=1e-05, elementwise_affine=True)
        (encoder): CLIPEncoder(
          (layers): ModuleList(
            (0-23): 24 x CLIPEncoderLayer(
              (self_attn): CLIPAttention(
                (k_proj): Linear(in_features=1024, out_features=1024, bias=True)
                (v_proj): Linear(in_features=1024, out_features=1024, bias=True)
                (q_proj): Linear(in_features=1024, out_features=1024, bias=True)
                (out_proj): Linear(in_features=1024, out_features=1024, bias=True)
              )
              (layer_norm1): LayerNorm((1024,), eps=1e-05, elementwise_affine=True)
              (mlp): CLIPMLP(
                (activation_fn): QuickGELUActivation()
                (fc1): Linear(in_features=1024, out_features=4096, bias=True)
                (fc2): Linear(in_features=4096, out_features=1024, bias=True)
              )
              (layer_norm2): LayerNorm((1024,), eps=1e-05, elementwise_affine=True)
            )
          )
        )
        (post_layernorm): LayerNorm((1024,), eps=1e-05, elementwise_affine=True)
      )
    )
  )
  (mm_projector): Sequential(
    (0): Linear(in_features=1024, out_features=2048, bias=True)
    (1): GELU(approximate='none')
    (2): Linear(in_features=2048, out_features=2048, bias=True)
  )
)
model.get_model().mm_projector.parameters() <generator object Module.parameters at 0x7a463827c350>
current file path llava/llava/model/language_model/llava_llama.py
def LlavaLlamaForCausalLM.get_model(self)
self
 <class 'llava.model.language_model.llava_llama.LlavaLlamaForCausalLM'>
self.model (return)
 LlavaLlamaModel(
  (embed_tokens): Embedding(32000, 2048, padding_idx=0)
  (layers): ModuleList(
    (0-21): 22 x LlamaDecoderLayer(
      (self_attn): LlamaAttention(
        (q_proj): Linear(in_features=2048, out_features=2048, bias=False)
        (k_proj): Linear(in_features=2048, out_features=256, bias=False)
        (v_proj): Linear(in_features=2048, out_features=256, bias=False)
        (o_proj): Linear(in_features=2048, out_features=2048, bias=False)
        (rotary_emb): LlamaRotaryEmbedding()
      )
      (mlp): LlamaMLP(
        (gate_proj): Linear(in_features=2048, out_features=5632, bias=False)
        (up_proj): Linear(in_features=2048, out_features=5632, bias=False)
        (down_proj): Linear(in_features=5632, out_features=2048, bias=False)
        (act_fn): SiLUActivation()
      )
      (input_layernorm): LlamaRMSNorm()
      (post_attention_layernorm): LlamaRMSNorm()
    )
  )
  (norm): LlamaRMSNorm()
  (vision_tower): CLIPVisionTower(
    (vision_tower): CLIPVisionModel(
      (vision_model): CLIPVisionTransformer(
        (embeddings): CLIPVisionEmbeddings(
          (patch_embedding): Conv2d(3, 1024, kernel_size=(14, 14), stride=(14, 14), bias=False)
          (position_embedding): Embedding(577, 1024)
        )
        (pre_layrnorm): LayerNorm((1024,), eps=1e-05, elementwise_affine=True)
        (encoder): CLIPEncoder(
          (layers): ModuleList(
            (0-23): 24 x CLIPEncoderLayer(
              (self_attn): CLIPAttention(
                (k_proj): Linear(in_features=1024, out_features=1024, bias=True)
                (v_proj): Linear(in_features=1024, out_features=1024, bias=True)
                (q_proj): Linear(in_features=1024, out_features=1024, bias=True)
                (out_proj): Linear(in_features=1024, out_features=1024, bias=True)
              )
              (layer_norm1): LayerNorm((1024,), eps=1e-05, elementwise_affine=True)
              (mlp): CLIPMLP(
                (activation_fn): QuickGELUActivation()
                (fc1): Linear(in_features=1024, out_features=4096, bias=True)
                (fc2): Linear(in_features=4096, out_features=1024, bias=True)
              )
              (layer_norm2): LayerNorm((1024,), eps=1e-05, elementwise_affine=True)
            )
          )
        )
        (post_layernorm): LayerNorm((1024,), eps=1e-05, elementwise_affine=True)
      )
    )
  )
  (mm_projector): Sequential(
    (0): Linear(in_features=1024, out_features=2048, bias=True)
    (1): GELU(approximate='none')
    (2): Linear(in_features=2048, out_features=2048, bias=True)
  )
)
model.get_model().mm_projector.parameters() <generator object Module.parameters at 0x7a463827c350>
current file path llava/llava/model/language_model/llava_llama.py
def LlavaLlamaForCausalLM.get_model(self)
self
 <class 'llava.model.language_model.llava_llama.LlavaLlamaForCausalLM'>
self.model (return)
 LlavaLlamaModel(
  (embed_tokens): Embedding(32000, 2048, padding_idx=0)
  (layers): ModuleList(
    (0-21): 22 x LlamaDecoderLayer(
      (self_attn): LlamaAttention(
        (q_proj): Linear(in_features=2048, out_features=2048, bias=False)
        (k_proj): Linear(in_features=2048, out_features=256, bias=False)
        (v_proj): Linear(in_features=2048, out_features=256, bias=False)
        (o_proj): Linear(in_features=2048, out_features=2048, bias=False)
        (rotary_emb): LlamaRotaryEmbedding()
      )
      (mlp): LlamaMLP(
        (gate_proj): Linear(in_features=2048, out_features=5632, bias=False)
        (up_proj): Linear(in_features=2048, out_features=5632, bias=False)
        (down_proj): Linear(in_features=5632, out_features=2048, bias=False)
        (act_fn): SiLUActivation()
      )
      (input_layernorm): LlamaRMSNorm()
      (post_attention_layernorm): LlamaRMSNorm()
    )
  )
  (norm): LlamaRMSNorm()
  (vision_tower): CLIPVisionTower(
    (vision_tower): CLIPVisionModel(
      (vision_model): CLIPVisionTransformer(
        (embeddings): CLIPVisionEmbeddings(
          (patch_embedding): Conv2d(3, 1024, kernel_size=(14, 14), stride=(14, 14), bias=False)
          (position_embedding): Embedding(577, 1024)
        )
        (pre_layrnorm): LayerNorm((1024,), eps=1e-05, elementwise_affine=True)
        (encoder): CLIPEncoder(
          (layers): ModuleList(
            (0-23): 24 x CLIPEncoderLayer(
              (self_attn): CLIPAttention(
                (k_proj): Linear(in_features=1024, out_features=1024, bias=True)
                (v_proj): Linear(in_features=1024, out_features=1024, bias=True)
                (q_proj): Linear(in_features=1024, out_features=1024, bias=True)
                (out_proj): Linear(in_features=1024, out_features=1024, bias=True)
              )
              (layer_norm1): LayerNorm((1024,), eps=1e-05, elementwise_affine=True)
              (mlp): CLIPMLP(
                (activation_fn): QuickGELUActivation()
                (fc1): Linear(in_features=1024, out_features=4096, bias=True)
                (fc2): Linear(in_features=4096, out_features=1024, bias=True)
              )
              (layer_norm2): LayerNorm((1024,), eps=1e-05, elementwise_affine=True)
            )
          )
        )
        (post_layernorm): LayerNorm((1024,), eps=1e-05, elementwise_affine=True)
      )
    )
  )
  (mm_projector): Sequential(
    (0): Linear(in_features=1024, out_features=2048, bias=True)
    (1): GELU(approximate='none')
    (2): Linear(in_features=2048, out_features=2048, bias=True)
  )
)
model.get_model().mm_projector.parameters() <generator object Module.parameters at 0x7a463827c350>
current file path llava/llava/model/language_model/llava_llama.py
def LlavaLlamaForCausalLM.get_model(self)
self
 <class 'llava.model.language_model.llava_llama.LlavaLlamaForCausalLM'>
self.model (return)
 LlavaLlamaModel(
  (embed_tokens): Embedding(32000, 2048, padding_idx=0)
  (layers): ModuleList(
    (0-21): 22 x LlamaDecoderLayer(
      (self_attn): LlamaAttention(
        (q_proj): Linear(in_features=2048, out_features=2048, bias=False)
        (k_proj): Linear(in_features=2048, out_features=256, bias=False)
        (v_proj): Linear(in_features=2048, out_features=256, bias=False)
        (o_proj): Linear(in_features=2048, out_features=2048, bias=False)
        (rotary_emb): LlamaRotaryEmbedding()
      )
      (mlp): LlamaMLP(
        (gate_proj): Linear(in_features=2048, out_features=5632, bias=False)
        (up_proj): Linear(in_features=2048, out_features=5632, bias=False)
        (down_proj): Linear(in_features=5632, out_features=2048, bias=False)
        (act_fn): SiLUActivation()
      )
      (input_layernorm): LlamaRMSNorm()
      (post_attention_layernorm): LlamaRMSNorm()
    )
  )
  (norm): LlamaRMSNorm()
  (vision_tower): CLIPVisionTower(
    (vision_tower): CLIPVisionModel(
      (vision_model): CLIPVisionTransformer(
        (embeddings): CLIPVisionEmbeddings(
          (patch_embedding): Conv2d(3, 1024, kernel_size=(14, 14), stride=(14, 14), bias=False)
          (position_embedding): Embedding(577, 1024)
        )
        (pre_layrnorm): LayerNorm((1024,), eps=1e-05, elementwise_affine=True)
        (encoder): CLIPEncoder(
          (layers): ModuleList(
            (0-23): 24 x CLIPEncoderLayer(
              (self_attn): CLIPAttention(
                (k_proj): Linear(in_features=1024, out_features=1024, bias=True)
                (v_proj): Linear(in_features=1024, out_features=1024, bias=True)
                (q_proj): Linear(in_features=1024, out_features=1024, bias=True)
                (out_proj): Linear(in_features=1024, out_features=1024, bias=True)
              )
              (layer_norm1): LayerNorm((1024,), eps=1e-05, elementwise_affine=True)
              (mlp): CLIPMLP(
                (activation_fn): QuickGELUActivation()
                (fc1): Linear(in_features=1024, out_features=4096, bias=True)
                (fc2): Linear(in_features=4096, out_features=1024, bias=True)
              )
              (layer_norm2): LayerNorm((1024,), eps=1e-05, elementwise_affine=True)
            )
          )
        )
        (post_layernorm): LayerNorm((1024,), eps=1e-05, elementwise_affine=True)
      )
    )
  )
  (mm_projector): Sequential(
    (0): Linear(in_features=1024, out_features=2048, bias=True)
    (1): GELU(approximate='none')
    (2): Linear(in_features=2048, out_features=2048, bias=True)
  )
)
model.get_model().mm_projector.parameters() <generator object Module.parameters at 0x7a463827c350>
【EXIT】if model_args.tune_mm_mlp_adapter:
【COND】 freeze_mm_mlp_adapter=False
【COND】 bits=16
model_args.mm_use_im_start_end False
training_args.mm_projector_lr None
training_args.use_im_start_end False
model_args.mm_use_im_patch_token False
current file path llava/model/llava_arch.py
…
current file path llava/train/train.py
def LazySupervisedDataset.__len__(self)
current file path llava/train/train.py
def LazySupervisedDataset.__len__(self)
current file path llava/train/train.py
def LazySupervisedDataset.__len__(self)
current file path llava/train/train.py
def LazySupervisedDataset.__len__(self)
current file path llava/train/llava_trainer.py
def create_optimizer(self)
self
 <llava.train.llava_trainer.LLaVATrainer object at 0x7a4663927070>
【COND】 sagemaker_mp_enabled=False
【COND】 sharded_ddp=None, SHARDED_DDP_SIMPLE=simple
opt_model
 LlavaLlamaForCausalLM(
  (model): LlavaLlamaModel(
    (embed_tokens): Embedding(32000, 2048, padding_idx=0)
    (layers): ModuleList(
      (0-21): 22 x LlamaDecoderLayer(
        (self_attn): LlamaAttention(
          (q_proj): Linear(in_features=2048, out_features=2048, bias=False)
          (k_proj): Linear(in_features=2048, out_features=256, bias=False)
          (v_proj): Linear(in_features=2048, out_features=256, bias=False)
          (o_proj): Linear(in_features=2048, out_features=2048, bias=False)
          (rotary_emb): LlamaRotaryEmbedding()
        )
        (mlp): LlamaMLP(
          (gate_proj): Linear(in_features=2048, out_features=5632, bias=False)
          (up_proj): Linear(in_features=2048, out_features=5632, bias=False)
          (down_proj): Linear(in_features=5632, out_features=2048, bias=False)
          (act_fn): SiLUActivation()
        )
        (input_layernorm): LlamaRMSNorm()
        (post_attention_layernorm): LlamaRMSNorm()
      )
    )
    (norm): LlamaRMSNorm()
    (vision_tower): CLIPVisionTower(
      (vision_tower): CLIPVisionModel(
        (vision_model): CLIPVisionTransformer(
          (embeddings): CLIPVisionEmbeddings(
            (patch_embedding): Conv2d(3, 1024, kernel_size=(14, 14), stride=(14, 14), bias=False)
            (position_embedding): Embedding(577, 1024)
          )
          (pre_layrnorm): LayerNorm((1024,), eps=1e-05, elementwise_affine=True)
          (encoder): CLIPEncoder(
            (layers): ModuleList(
              (0-23): 24 x CLIPEncoderLayer(
                (self_attn): CLIPAttention(
                  (k_proj): Linear(in_features=1024, out_features=1024, bias=True)
                  (v_proj): Linear(in_features=1024, out_features=1024, bias=True)
                  (q_proj): Linear(in_features=1024, out_features=1024, bias=True)
                  (out_proj): Linear(in_features=1024, out_features=1024, bias=True)
                )
                (layer_norm1): LayerNorm((1024,), eps=1e-05, elementwise_affine=True)
                (mlp): CLIPMLP(
                  (activation_fn): QuickGELUActivation()
                  (fc1): Linear(in_features=1024, out_features=4096, bias=True)
                  (fc2): Linear(in_features=4096, out_features=1024, bias=True)
                )
                (layer_norm2): LayerNorm((1024,), eps=1e-05, elementwise_affine=True)
              )
            )
          )
          (post_layernorm): LayerNorm((1024,), eps=1e-05, elementwise_affine=True)
        )
      )
    )
    (mm_projector): Sequential(
      (0): Linear(in_features=1024, out_features=2048, bias=True)
      (1): GELU(approximate='none')
      (2): Linear(in_features=2048, out_features=2048, bias=True)
    )
  )
  (lm_head): Linear(in_features=2048, out_features=32000, bias=False)
)
【COND】 optimizer_is_None=True
【ENTER】if self.optimizer is None:
print(risk): print(self.args) disabled for safety
print(risk): print(opt_model) disabled for safety
print(risk): print(optimizer_grouped_parameters) disabled for safety
print(risk): print(optimizer_cls) disabled for safety
print(risk): print(optimizer_kwargs) disabled for safety
ALL_LAYERNORM_LAYERS
…
          [-0.3711, -0.3848, -0.4004,  ..., -0.4277, -0.4277, -0.4277],
          [-0.3711, -0.3711, -0.3848,  ..., -0.4277, -0.4277, -0.4277],
          [-0.3848, -0.3711, -0.3711,  ..., -0.4277, -0.4277, -0.4277]]]],
       device='cuda:0', dtype=torch.bfloat16)
image_sizes
 None
current file path llava/model/llava_arch.py
class LlavaMetaForCausalLM(ABC).get_vision_tower(self)
current file path llava/llava/model/language_model/llava_llama.py
def LlavaLlamaForCausalLM.get_model(self)
self
 <class 'llava.model.language_model.llava_llama.LlavaLlamaForCausalLM'>
self.model (return)
 LlavaLlamaModel(
  (embed_tokens): Embedding(32000, 2048, padding_idx=0)
  (layers): ModuleList(
    (0-21): 22 x LlamaDecoderLayer(
      (self_attn): LlamaAttention(
        (q_proj): Linear(in_features=2048, out_features=2048, bias=False)
        (k_proj): Linear(in_features=2048, out_features=256, bias=False)
        (v_proj): Linear(in_features=2048, out_features=256, bias=False)
        (o_proj): Linear(in_features=2048, out_features=2048, bias=False)
        (rotary_emb): LlamaRotaryEmbedding()
      )
      (mlp): LlamaMLP(
        (gate_proj): Linear(in_features=2048, out_features=5632, bias=False)
        (up_proj): Linear(in_features=2048, out_features=5632, bias=False)
        (down_proj): Linear(in_features=5632, out_features=2048, bias=False)
        (act_fn): SiLUActivation()
      )
      (input_layernorm): LlamaRMSNorm()
      (post_attention_layernorm): LlamaRMSNorm()
    )
  )
  (norm): LlamaRMSNorm()
  (vision_tower): CLIPVisionTower(
    (vision_tower): CLIPVisionModel(
      (vision_model): CLIPVisionTransformer(
        (embeddings): CLIPVisionEmbeddings(
          (patch_embedding): Conv2d(3, 1024, kernel_size=(14, 14), stride=(14, 14), bias=False)
          (position_embedding): Embedding(577, 1024)
        )
        (pre_layrnorm): LayerNorm((1024,), eps=1e-05, elementwise_affine=True)
        (encoder): CLIPEncoder(
          (layers): ModuleList(
            (0-23): 24 x CLIPEncoderLayer(
              (self_attn): CLIPAttention(
                (k_proj): Linear(in_features=1024, out_features=1024, bias=True)
                (v_proj): Linear(in_features=1024, out_features=1024, bias=True)
                (q_proj): Linear(in_features=1024, out_features=1024, bias=True)
                (out_proj): Linear(in_features=1024, out_features=1024, bias=True)
              )
              (layer_norm1): LayerNorm((1024,), eps=1e-05, elementwise_affine=True)
              (mlp): CLIPMLP(
                (activation_fn): QuickGELUActivation()
                (fc1): Linear(in_features=1024, out_features=4096, bias=True)
                (fc2): Linear(in_features=4096, out_features=1024, bias=True)
              )
              (layer_norm2): LayerNorm((1024,), eps=1e-05, elementwise_affine=True)
            )
          )
        )
        (post_layernorm): LayerNorm((1024,), eps=1e-05, elementwise_affine=True)
      )
    )
  )
  (mm_projector): Sequential(
    (0): Linear(in_features=1024, out_features=2048, bias=True)
    (1): GELU(approximate='none')
    (2): Linear(in_features=2048, out_features=2048, bias=True)
  )
)
current file path llava/model/llava_arch.py
def get_vision_tower(self)
vision_tower (raw)
 CLIPVisionTower(
  (vision_tower): CLIPVisionModel(
    (vision_model): CLIPVisionTransformer(
      (embeddings): CLIPVisionEmbeddings(
        (patch_embedding): Conv2d(3, 1024, kernel_size=(14, 14), stride=(14, 14), bias=False)
        (position_embedding): Embedding(577, 1024)
      )
      (pre_layrnorm): LayerNorm((1024,), eps=1e-05, elementwise_affine=True)
      (encoder): CLIPEncoder(
        (layers): ModuleList(
          (0-23): 24 x CLIPEncoderLayer(
            (self_attn): CLIPAttention(
              (k_proj): Linear(in_features=1024, out_features=1024, bias=True)
              (v_proj): Linear(in_features=1024, out_features=1024, bias=True)
              (q_proj): Linear(in_features=1024, out_features=1024, bias=True)
              (out_proj): Linear(in_features=1024, out_features=1024, bias=True)
            )
            (layer_norm1): LayerNorm((1024,), eps=1e-05, elementwise_affine=True)
            (mlp): CLIPMLP(
              (activation_fn): QuickGELUActivation()
              (fc1): Linear(in_features=1024, out_features=4096, bias=True)
              (fc2): Linear(in_features=4096, out_features=1024, bias=True)
            )
            (layer_norm2): LayerNorm((1024,), eps=1e-05, elementwise_affine=True)
          )
        )
      )
      (post_layernorm): LayerNorm((1024,), eps=1e-05, elementwise_affine=True)
    )
  )
)
type(vision_tower)
 <class 'llava.model.multimodal_encoder.clip_encoder.CLIPVisionTower'>
【COND】 type_vision_tower_is_list=False
vision_tower (return)
 CLIPVisionTower(
  (vision_tower): CLIPVisionModel(
    (vision_model): CLIPVisionTransformer(
      (embeddings): CLIPVisionEmbeddings(
        (patch_embedding): Conv2d(3, 1024, kernel_size=(14, 14), stride=(14, 14), bias=False)
        (position_embedding): Embedding(577, 1024)
      )
      (pre_layrnorm): LayerNorm((1024,), eps=1e-05, elementwise_affine=True)
      (encoder): CLIPEncoder(
        (layers): ModuleList(
          (0-23): 24 x CLIPEncoderLayer(
            (self_attn): CLIPAttention(
              (k_proj): Linear(in_features=1024, out_features=1024, bias=True)
              (v_proj): Linear(in_features=1024, out_features=1024, bias=True)
              (q_proj): Linear(in_features=1024, out_features=1024, bias=True)
              (out_proj): Linear(in_features=1024, out_features=1024, bias=True)
            )
            (layer_norm1): LayerNorm((1024,), eps=1e-05, elementwise_affine=True)
            (mlp): CLIPMLP(
              (activation_fn): QuickGELUActivation()
              (fc1): Linear(in_features=1024, out_features=4096, bias=True)
              (fc2): Linear(in_features=4096, out_features=1024, bias=True)
            )
            (layer_norm2): LayerNorm((1024,), eps=1e-05, elementwise_affine=True)
          )
        )
      )
      (post_layernorm): LayerNorm((1024,), eps=1e-05, elementwise_affine=True)
    )
  )
)
LlavaMetaForCausalLM(ABC).get_vision_tower(self) result (return)
 CLIPVisionTower(
  (vision_tower): CLIPVisionModel(
    (vision_model): CLIPVisionTransformer(
      (embeddings): CLIPVisionEmbeddings(
        (patch_embedding): Conv2d(3, 1024, kernel_size=(14, 14), stride=(14, 14), bias=False)
        (position_embedding): Embedding(577, 1024)
      )
      (pre_layrnorm): LayerNorm((1024,), eps=1e-05, elementwise_affine=True)
      (encoder): CLIPEncoder(
        (layers): ModuleList(
          (0-23): 24 x CLIPEncoderLayer(
            (self_attn): CLIPAttention(
              (k_proj): Linear(in_features=1024, out_features=1024, bias=True)
              (v_proj): Linear(in_features=1024, out_features=1024, bias=True)
              (q_proj): Linear(in_features=1024, out_features=1024, bias=True)
              (out_proj): Linear(in_features=1024, out_features=1024, bias=True)
            )
            (layer_norm1): LayerNorm((1024,), eps=1e-05, elementwise_affine=True)
            (mlp): CLIPMLP(
              (activation_fn): QuickGELUActivation()
              (fc1): Linear(in_features=1024, out_features=4096, bias=True)
              (fc2): Linear(in_features=4096, out_features=1024, bias=True)
            )
            (layer_norm2): LayerNorm((1024,), eps=1e-05, elementwise_affine=True)
          )
        )
      )
      (post_layernorm): LayerNorm((1024,), eps=1e-05, elementwise_affine=True)
    )
  )
)
vision_tower
 CLIPVisionTower(
  (vision_tower): CLIPVisionModel(
    (vision_model): CLIPVisionTransformer(
      (embeddings): CLIPVisionEmbeddings(
        (patch_embedding): Conv2d(3, 1024, kernel_size=(14, 14), stride=(14, 14), bias=False)
        (position_embedding): Embedding(577, 1024)
      )
      (pre_layrnorm): LayerNorm((1024,), eps=1e-05, elementwise_affine=True)
      (encoder): CLIPEncoder(
        (layers): ModuleList(
          (0-23): 24 x CLIPEncoderLayer(
            (self_attn): CLIPAttention(
              (k_proj): Linear(in_features=1024, out_features=1024, bias=True)
              (v_proj): Linear(in_features=1024, out_features=1024, bias=True)
              (q_proj): Linear(in_features=1024, out_features=1024, bias=True)
              (out_proj): Linear(in_features=1024, out_features=1024, bias=True)
            )
            (layer_norm1): LayerNorm((1024,), eps=1e-05, elementwise_affine=True)
            (mlp): CLIPMLP(
              (activation_fn): QuickGELUActivation()
              (fc1): Linear(in_features=1024, out_features=4096, bias=True)
              (fc2): Linear(in_features=4096, out_features=1024, bias=True)
            )
            (layer_norm2): LayerNorm((1024,), eps=1e-05, elementwise_affine=True)
          )
        )
      )
      (post_layernorm): LayerNorm((1024,), eps=1e-05, elementwise_affine=True)
    )
  )
)
【COND】 vision_tower_is_None=False images_is_None=False input_ids_shape_1_eq_1=False
【COND】type(images)
 <class 'torch.Tensor'>
【COND】images.ndim
 4
【ENTER】else of if type(images) is list or images.ndim == 5:
current file path llava/model/llava_arch.py
def LlavaMetaForCausalLM(ABC).encode_images(self, images)
images
 tensor([[[[ 0.0325,  0.0325,  0.0325,  ..., -0.7109, -0.3613, -0.1279],
…
          [ 0.9648,  0.9648,  0.9648,  ...,  0.3965,  0.6094,  0.7539],
          [ 0.9648,  0.9648,  0.9648,  ...,  0.7539,  0.8086,  0.8359],
          ...,
          [-0.3711, -0.3848, -0.4004,  ..., -0.4277, -0.4277, -0.4277],
          [-0.3711, -0.3711, -0.3848,  ..., -0.4277, -0.4277, -0.4277],
          [-0.3848, -0.3711, -0.3711,  ..., -0.4277, -0.4277, -0.4277]]]],
       device='cuda:0', dtype=torch.bfloat16)
current file path llava/llava/model/language_model/llava_llama.py
def LlavaLlamaForCausalLM.get_model(self)
self
 <class 'llava.model.language_model.llava_llama.LlavaLlamaForCausalLM'>
self.model (return)
 LlavaLlamaModel(
  (embed_tokens): Embedding(32000, 2048, padding_idx=0)
  (layers): ModuleList(
    (0-21): 22 x LlamaDecoderLayer(
      (self_attn): LlamaAttention(
        (q_proj): Linear(in_features=2048, out_features=2048, bias=False)
        (k_proj): Linear(in_features=2048, out_features=256, bias=False)
        (v_proj): Linear(in_features=2048, out_features=256, bias=False)
        (o_proj): Linear(in_features=2048, out_features=2048, bias=False)
        (rotary_emb): LlamaRotaryEmbedding()
      )
      (mlp): LlamaMLP(
        (gate_proj): Linear(in_features=2048, out_features=5632, bias=False)
        (up_proj): Linear(in_features=2048, out_features=5632, bias=False)
        (down_proj): Linear(in_features=5632, out_features=2048, bias=False)
        (act_fn): SiLUActivation()
      )
      (input_layernorm): LlamaRMSNorm()
      (post_attention_layernorm): LlamaRMSNorm()
    )
  )
  (norm): LlamaRMSNorm()
  (vision_tower): CLIPVisionTower(
    (vision_tower): CLIPVisionModel(
      (vision_model): CLIPVisionTransformer(
        (embeddings): CLIPVisionEmbeddings(
          (patch_embedding): Conv2d(3, 1024, kernel_size=(14, 14), stride=(14, 14), bias=False)
          (position_embedding): Embedding(577, 1024)
        )
        (pre_layrnorm): LayerNorm((1024,), eps=1e-05, elementwise_affine=True)
        (encoder): CLIPEncoder(
          (layers): ModuleList(
            (0-23): 24 x CLIPEncoderLayer(
              (self_attn): CLIPAttention(
                (k_proj): Linear(in_features=1024, out_features=1024, bias=True)
                (v_proj): Linear(in_features=1024, out_features=1024, bias=True)
                (q_proj): Linear(in_features=1024, out_features=1024, bias=True)
                (out_proj): Linear(in_features=1024, out_features=1024, bias=True)
              )
              (layer_norm1): LayerNorm((1024,), eps=1e-05, elementwise_affine=True)
              (mlp): CLIPMLP(
                (activation_fn): QuickGELUActivation()
                (fc1): Linear(in_features=1024, out_features=4096, bias=True)
                (fc2): Linear(in_features=4096, out_features=1024, bias=True)
              )
              (layer_norm2): LayerNorm((1024,), eps=1e-05, elementwise_affine=True)
            )
          )
        )
        (post_layernorm): LayerNorm((1024,), eps=1e-05, elementwise_affine=True)
      )
    )
  )
  (mm_projector): Sequential(
    (0): Linear(in_features=1024, out_features=2048, bias=True)
    (1): GELU(approximate='none')
    (2): Linear(in_features=2048, out_features=2048, bias=True)
  )
)
current file path llava/model/llava_arch.py
def get_vision_tower(self)
vision_tower (raw)
 CLIPVisionTower(
  (vision_tower): CLIPVisionModel(
    (vision_model): CLIPVisionTransformer(
      (embeddings): CLIPVisionEmbeddings(
        (patch_embedding): Conv2d(3, 1024, kernel_size=(14, 14), stride=(14, 14), bias=False)
        (position_embedding): Embedding(577, 1024)
      )
      (pre_layrnorm): LayerNorm((1024,), eps=1e-05, elementwise_affine=True)
      (encoder): CLIPEncoder(
        (layers): ModuleList(
          (0-23): 24 x CLIPEncoderLayer(
            (self_attn): CLIPAttention(
              (k_proj): Linear(in_features=1024, out_features=1024, bias=True)
              (v_proj): Linear(in_features=1024, out_features=1024, bias=True)
              (q_proj): Linear(in_features=1024, out_features=1024, bias=True)
              (out_proj): Linear(in_features=1024, out_features=1024, bias=True)
            )
            (layer_norm1): LayerNorm((1024,), eps=1e-05, elementwise_affine=True)
            (mlp): CLIPMLP(
              (activation_fn): QuickGELUActivation()
              (fc1): Linear(in_features=1024, out_features=4096, bias=True)
              (fc2): Linear(in_features=4096, out_features=1024, bias=True)
            )
            (layer_norm2): LayerNorm((1024,), eps=1e-05, elementwise_affine=True)
          )
        )
      )
      (post_layernorm): LayerNorm((1024,), eps=1e-05, elementwise_affine=True)
    )
  )
)
type(vision_tower)
 <class 'llava.model.multimodal_encoder.clip_encoder.CLIPVisionTower'>
【COND】 type_vision_tower_is_list=False
vision_tower (return)
 CLIPVisionTower(
  (vision_tower): CLIPVisionModel(
    (vision_model): CLIPVisionTransformer(
      (embeddings): CLIPVisionEmbeddings(
        (patch_embedding): Conv2d(3, 1024, kernel_size=(14, 14), stride=(14, 14), bias=False)
        (position_embedding): Embedding(577, 1024)
      )
      (pre_layrnorm): LayerNorm((1024,), eps=1e-05, elementwise_affine=True)
      (encoder): CLIPEncoder(
        (layers): ModuleList(
          (0-23): 24 x CLIPEncoderLayer(
            (self_attn): CLIPAttention(
              (k_proj): Linear(in_features=1024, out_features=1024, bias=True)
              (v_proj): Linear(in_features=1024, out_features=1024, bias=True)
              (q_proj): Linear(in_features=1024, out_features=1024, bias=True)
              (out_proj): Linear(in_features=1024, out_features=1024, bias=True)
            )
            (layer_norm1): LayerNorm((1024,), eps=1e-05, elementwise_affine=True)
            (mlp): CLIPMLP(
              (activation_fn): QuickGELUActivation()
              (fc1): Linear(in_features=1024, out_features=4096, bias=True)
              (fc2): Linear(in_features=4096, out_features=1024, bias=True)
            )
            (layer_norm2): LayerNorm((1024,), eps=1e-05, elementwise_affine=True)
          )
        )
      )
      (post_layernorm): LayerNorm((1024,), eps=1e-05, elementwise_affine=True)
    )
  )
)
current file path llava/llava/model/multimodal_encoder/clip_encoder.py
def CLIPVisionTower.forward(self, images)
images
 tensor([[[[ 0.0325,  0.0325,  0.0325,  ..., -0.7109, -0.3613, -0.1279],
          [ 0.0325,  0.0325,  0.0325,  ..., -0.3906, -0.1719, -0.0259],
          [ 0.0325,  0.0325,  0.0325,  ..., -0.0112,  0.0471,  0.0908],
          ...,
…
         [ 1.0781, -0.1250, -0.3457,  ..., -0.1240,  0.1230,  0.4746],
         ...,
         [ 1.7031,  0.9688,  0.8516,  ..., -0.2656, -0.8828,  1.2969],
         [ 0.7734, -0.3535,  0.6719,  ..., -0.3320, -1.0078,  0.3242],
         [ 1.4062,  0.6992,  0.3789,  ..., -0.5195, -0.4805,  1.1641]]],
       device='cuda:0', dtype=torch.bfloat16)
image_features.shape
 torch.Size([2, 576, 1024])
current file path llava/llava/model/language_model/llava_llama.py
def LlavaLlamaForCausalLM.get_model(self)
self
 <class 'llava.model.language_model.llava_llama.LlavaLlamaForCausalLM'>
self.model (return)
 LlavaLlamaModel(
  (embed_tokens): Embedding(32000, 2048, padding_idx=0)
  (layers): ModuleList(
    (0-21): 22 x LlamaDecoderLayer(
      (self_attn): LlamaAttention(
        (q_proj): Linear(in_features=2048, out_features=2048, bias=False)
        (k_proj): Linear(in_features=2048, out_features=256, bias=False)
        (v_proj): Linear(in_features=2048, out_features=256, bias=False)
        (o_proj): Linear(in_features=2048, out_features=2048, bias=False)
        (rotary_emb): LlamaRotaryEmbedding()
      )
      (mlp): LlamaMLP(
        (gate_proj): Linear(in_features=2048, out_features=5632, bias=False)
        (up_proj): Linear(in_features=2048, out_features=5632, bias=False)
        (down_proj): Linear(in_features=5632, out_features=2048, bias=False)
        (act_fn): SiLUActivation()
      )
      (input_layernorm): LlamaRMSNorm()
      (post_attention_layernorm): LlamaRMSNorm()
    )
  )
  (norm): LlamaRMSNorm()
  (vision_tower): CLIPVisionTower(
    (vision_tower): CLIPVisionModel(
      (vision_model): CLIPVisionTransformer(
        (embeddings): CLIPVisionEmbeddings(
          (patch_embedding): Conv2d(3, 1024, kernel_size=(14, 14), stride=(14, 14), bias=False)
          (position_embedding): Embedding(577, 1024)
        )
        (pre_layrnorm): LayerNorm((1024,), eps=1e-05, elementwise_affine=True)
        (encoder): CLIPEncoder(
          (layers): ModuleList(
            (0-23): 24 x CLIPEncoderLayer(
              (self_attn): CLIPAttention(
                (k_proj): Linear(in_features=1024, out_features=1024, bias=True)
                (v_proj): Linear(in_features=1024, out_features=1024, bias=True)
                (q_proj): Linear(in_features=1024, out_features=1024, bias=True)
                (out_proj): Linear(in_features=1024, out_features=1024, bias=True)
              )
              (layer_norm1): LayerNorm((1024,), eps=1e-05, elementwise_affine=True)
              (mlp): CLIPMLP(
                (activation_fn): QuickGELUActivation()
                (fc1): Linear(in_features=1024, out_features=4096, bias=True)
                (fc2): Linear(in_features=4096, out_features=1024, bias=True)
              )
              (layer_norm2): LayerNorm((1024,), eps=1e-05, elementwise_affine=True)
            )
          )
        )
        (post_layernorm): LayerNorm((1024,), eps=1e-05, elementwise_affine=True)
      )
    )
  )
  (mm_projector): Sequential(
    (0): Linear(in_features=1024, out_features=2048, bias=True)
    (1): GELU(approximate='none')
    (2): Linear(in_features=2048, out_features=2048, bias=True)
  )
)
image_features (return)
 tensor([[[ 0.0073,  0.1001, -0.1709,  ...,  0.0075, -0.0596,  0.0742],
         [ 0.0933,  0.1211, -0.1621,  ...,  0.0376,  0.0845, -0.1602],
         [-0.1426, -0.0488, -0.0269,  ..., -0.0483,  0.1514,  0.0486],
         ...,
         [-0.1230,  0.1079, -0.0013,  ..., -0.1621,  0.0659, -0.1328],
         [-0.0708,  0.0898, -0.1777,  ..., -0.2363,  0.2207, -0.0564],
…
         [-0.1426, -0.0488, -0.0269,  ..., -0.0483,  0.1514,  0.0486],
         ...,
         [-0.1230,  0.1079, -0.0013,  ..., -0.1621,  0.0659, -0.1328],
         [-0.0708,  0.0898, -0.1777,  ..., -0.2363,  0.2207, -0.0564],
         [ 0.0542,  0.0388, -0.0381,  ...,  0.0188, -0.0728, -0.2334]]],
       device='cuda:0', dtype=torch.bfloat16, grad_fn=<ViewBackward0>)
【EXIT】else of if type(images) is list or images.ndim == 5:
current file path llava/llava/model/language_model/llava_llama.py
def LlavaLlamaForCausalLM.get_model(self)
self
 <class 'llava.model.language_model.llava_llama.LlavaLlamaForCausalLM'>
self.model (return)
 LlavaLlamaModel(
  (embed_tokens): Embedding(32000, 2048, padding_idx=0)
  (layers): ModuleList(
    (0-21): 22 x LlamaDecoderLayer(
      (self_attn): LlamaAttention(
        (q_proj): Linear(in_features=2048, out_features=2048, bias=False)
        (k_proj): Linear(in_features=2048, out_features=256, bias=False)
        (v_proj): Linear(in_features=2048, out_features=256, bias=False)
        (o_proj): Linear(in_features=2048, out_features=2048, bias=False)
        (rotary_emb): LlamaRotaryEmbedding()
      )
      (mlp): LlamaMLP(
        (gate_proj): Linear(in_features=2048, out_features=5632, bias=False)
        (up_proj): Linear(in_features=2048, out_features=5632, bias=False)
        (down_proj): Linear(in_features=5632, out_features=2048, bias=False)
        (act_fn): SiLUActivation()
      )
      (input_layernorm): LlamaRMSNorm()
      (post_attention_layernorm): LlamaRMSNorm()
    )
  )
  (norm): LlamaRMSNorm()
  (vision_tower): CLIPVisionTower(
    (vision_tower): CLIPVisionModel(
      (vision_model): CLIPVisionTransformer(
        (embeddings): CLIPVisionEmbeddings(
          (patch_embedding): Conv2d(3, 1024, kernel_size=(14, 14), stride=(14, 14), bias=False)
          (position_embedding): Embedding(577, 1024)
        )
        (pre_layrnorm): LayerNorm((1024,), eps=1e-05, elementwise_affine=True)
        (encoder): CLIPEncoder(
          (layers): ModuleList(
            (0-23): 24 x CLIPEncoderLayer(
              (self_attn): CLIPAttention(
                (k_proj): Linear(in_features=1024, out_features=1024, bias=True)
                (v_proj): Linear(in_features=1024, out_features=1024, bias=True)
                (q_proj): Linear(in_features=1024, out_features=1024, bias=True)
                (out_proj): Linear(in_features=1024, out_features=1024, bias=True)
              )
              (layer_norm1): LayerNorm((1024,), eps=1e-05, elementwise_affine=True)
              (mlp): CLIPMLP(
                (activation_fn): QuickGELUActivation()
                (fc1): Linear(in_features=1024, out_features=4096, bias=True)
                (fc2): Linear(in_features=4096, out_features=1024, bias=True)
              )
              (layer_norm2): LayerNorm((1024,), eps=1e-05, elementwise_affine=True)
            )
          )
        )
        (post_layernorm): LayerNorm((1024,), eps=1e-05, elementwise_affine=True)
      )
    )
  )
  (mm_projector): Sequential(
    (0): Linear(in_features=1024, out_features=2048, bias=True)
    (1): GELU(approximate='none')
    (2): Linear(in_features=2048, out_features=2048, bias=True)
  )
)
current file path llava/llava/model/language_model/llava_llama.py
def LlavaLlamaForCausalLM.get_model(self)
self
 <class 'llava.model.language_model.llava_llama.LlavaLlamaForCausalLM'>
self.model (return)
 LlavaLlamaModel(
  (embed_tokens): Embedding(32000, 2048, padding_idx=0)
  (layers): ModuleList(
    (0-21): 22 x LlamaDecoderLayer(
      (self_attn): LlamaAttention(
        (q_proj): Linear(in_features=2048, out_features=2048, bias=False)
        (k_proj): Linear(in_features=2048, out_features=256, bias=False)
        (v_proj): Linear(in_features=2048, out_features=256, bias=False)
        (o_proj): Linear(in_features=2048, out_features=2048, bias=False)
        (rotary_emb): LlamaRotaryEmbedding()
      )
      (mlp): LlamaMLP(
        (gate_proj): Linear(in_features=2048, out_features=5632, bias=False)
        (up_proj): Linear(in_features=2048, out_features=5632, bias=False)
        (down_proj): Linear(in_features=5632, out_features=2048, bias=False)
        (act_fn): SiLUActivation()
      )
      (input_layernorm): LlamaRMSNorm()
      (post_attention_layernorm): LlamaRMSNorm()
    )
  )
  (norm): LlamaRMSNorm()
  (vision_tower): CLIPVisionTower(
    (vision_tower): CLIPVisionModel(
      (vision_model): CLIPVisionTransformer(
        (embeddings): CLIPVisionEmbeddings(
          (patch_embedding): Conv2d(3, 1024, kernel_size=(14, 14), stride=(14, 14), bias=False)
          (position_embedding): Embedding(577, 1024)
        )
        (pre_layrnorm): LayerNorm((1024,), eps=1e-05, elementwise_affine=True)
        (encoder): CLIPEncoder(
          (layers): ModuleList(
            (0-23): 24 x CLIPEncoderLayer(
              (self_attn): CLIPAttention(
                (k_proj): Linear(in_features=1024, out_features=1024, bias=True)
                (v_proj): Linear(in_features=1024, out_features=1024, bias=True)
                (q_proj): Linear(in_features=1024, out_features=1024, bias=True)
                (out_proj): Linear(in_features=1024, out_features=1024, bias=True)
              )
              (layer_norm1): LayerNorm((1024,), eps=1e-05, elementwise_affine=True)
              (mlp): CLIPMLP(
                (activation_fn): QuickGELUActivation()
                (fc1): Linear(in_features=1024, out_features=4096, bias=True)
                (fc2): Linear(in_features=4096, out_features=1024, bias=True)
              )
              (layer_norm2): LayerNorm((1024,), eps=1e-05, elementwise_affine=True)
            )
          )
        )
        (post_layernorm): LayerNorm((1024,), eps=1e-05, elementwise_affine=True)
      )
    )
  )
  (mm_projector): Sequential(
    (0): Linear(in_features=1024, out_features=2048, bias=True)
    (1): GELU(approximate='none')
    (2): Linear(in_features=2048, out_features=2048, bias=True)
  )
)
position_ids (return)
 None
attention_mask (return)
 tensor([[ True,  True,  True,  ..., False, False, False],
        [ True,  True,  True,  ...,  True,  True,  True]], device='cuda:0')
past_key_values (return)
 None
new_input_embeds (return)
 tensor([[[-0.0011,  0.0019, -0.0017,  ...,  0.0002, -0.0007, -0.0005],
         [ 0.0073,  0.1001, -0.1709,  ...,  0.0075, -0.0596,  0.0742],
…
