…
tokenizer_config.json: 100%|████████████████████████████████████████████████████████████| 749/749 [00:00<00:00, 5.50MB/s]
tokenizer.model: 100%|████████████████████████████████████████████████████████████████| 500k/500k [00:00<00:00, 4.73MB/s]
special_tokens_map.json: 100%|██████████████████████████████████████████████████████████| 438/438 [00:00<00:00, 2.84MB/s]
current file path llava/llava/model/language_model/llava_llama.py
def LlavaLlamaForCausalLM.get_model(self)
self
 <class 'llava.model.language_model.llava_llama.LlavaLlamaForCausalLM'>
self.model (return)
 LlavaLlamaModel(
  (embed_tokens): Embedding(32000, 4096, padding_idx=0)
  (layers): ModuleList(
    (0-31): 32 x LlamaDecoderLayer(
      (self_attn): LlamaAttention(
        (q_proj): Linear(in_features=4096, out_features=4096, bias=False)
        (k_proj): Linear(in_features=4096, out_features=4096, bias=False)
        (v_proj): Linear(in_features=4096, out_features=4096, bias=False)
        (o_proj): Linear(in_features=4096, out_features=4096, bias=False)
        (rotary_emb): LlamaRotaryEmbedding()
      )
      (mlp): LlamaMLP(
        (gate_proj): Linear(in_features=4096, out_features=11008, bias=False)
        (up_proj): Linear(in_features=4096, out_features=11008, bias=False)
        (down_proj): Linear(in_features=11008, out_features=4096, bias=False)
        (act_fn): SiLUActivation()
      )
      (input_layernorm): LlamaRMSNorm()
      (post_attention_layernorm): LlamaRMSNorm()
    )
  )
  (norm): LlamaRMSNorm()
)
current file path llava/model/llava_arch.py
def initialize_vision_modules(self, model_args, fsdp=None)
model_args
 ModelArguments(model_name_or_path='lmsys/vicuna-7b-v1.5', version=
…
current file path llava/llava/model/multimodal_encoder/clip_encoder.py
def CLIPVisionTower.load_model(self)
self
 <class 'llava.model.multimodal_encoder.clip_encoder.CLIPVisionTower'>
preprocessor_config.json: 100%|█████████████████████████████████████████████████████████| 316/316 [00:00<00:00, 3.63MB/s]
config.json: 4.76kB [00:00, 32.3MB/s]
pytorch_model.bin: 100%|█████████████████████████████████████████████████████████████| 1.71G/1.71G [00:02<00:00, 599MB/s]
result (return)
 CLIPVisionTower(
  (vision_tower): CLIPVisionModel(
    (vision_model): CLIPVisionTransformer(
      (embeddings): CLIPVisionEmbeddings(
        (patch_embedding): Conv2d(3, 1024, kernel_size=(14, 14), stride=(14, 14), bias=False)
        (position_embedding): Embedding(577, 1024)
      )
      (pre_layrnorm): LayerNorm((1024,), eps=1e-05, elementwise_affine=True)
      (encoder): CLIPEncoder(
        (layers): ModuleList(
          (0-23): 24 x CLIPEncoderLayer(
            (self_attn): CLIPAttention(
              (k_proj): Linear(in_features=1024, out_features=1024, bias=True)
              (v_proj): Linear(in_features=1024, out_features=1024, bias=True)
              (q_proj): Linear(in_features=1024, out_features=1024, bias=True)
              (out_proj): Linear(in_features=1024, out_features=1024, bias=True)
            )
            (layer_norm1): LayerNorm((1024,), eps=1e-05, elementwise_affine=True)
            (mlp): CLIPMLP(
              (activation_fn): QuickGELUActivation()
              (fc1): Linear(in_features=1024, out_features=4096, bias=True)
              (fc2): Linear(in_features=4096, out_features=1024, bias=True)
            )
            (layer_norm2): LayerNorm((1024,), eps=1e-05, elementwise_affine=True)
          )
        )
      )
      (post_layernorm): LayerNorm((1024,), eps=1e-05, elementwise_affine=True)
    )
  )
)
current file path llava/llava/model/multimodal_encoder/clip_encoder.py
def CLIPVisionTower.hidden_size(self)
self
 <class 'llava.model.multimodal_encoder.clip_encoder.CLIPVisionTower'>
current file path llava/llava/model/multimodal_encoder/clip_encoder.py
def CLIPVisionTower.config(self)
self
 <class 'llava.model.multimodal_encoder.clip_encoder.CLIPVisionTower'>
…
  "mm_projector_type": "mlp2x_gelu",
  "mm_vision_select_feature": "patch",
  "mm_vision_select_layer": -2,
  "mm_vision_tower": "openai/clip-vit-large-patch14-336",
  "model_type": "llava_llama",
  "num_attention_heads": 32,
  "num_hidden_layers": 32,
  "num_key_value_heads": 32,
  "pad_token_id": 0,
  "pretraining_tp": 1,
  "rms_norm_eps": 1e-05,
  "rope_scaling": null,
  "tie_word_embeddings": false,
  "torch_dtype": "float16",
  "transformers_version": "4.31.0",
  "use_cache": false,
  "use_mm_proj": true,
  "vocab_size": 32000
}

delay_load
 False
kwargs
 {}
result (return)
 Sequential(
  (0): Linear(in_features=1024, out_features=4096, bias=True)
  (1): GELU(approximate='none')
  (2): Linear(in_features=4096, out_features=4096, bias=True)
)
current file path llava/llava/model/language_model/llava_llama.py
def LlavaLlamaForCausalLM.get_model(self)
self
 <class 'llava.model.language_model.llava_llama.LlavaLlamaForCausalLM'>
self.model (return)
 LlavaLlamaModel(
  (embed_tokens): Embedding(32000, 4096, padding_idx=0)
  (layers): ModuleList(
    (0-31): 32 x LlamaDecoderLayer(
      (self_attn): LlamaAttention(
        (q_proj): Linear(in_features=4096, out_features=4096, bias=False)
        (k_proj): Linear(in_features=4096, out_features=4096, bias=False)
        (v_proj): Linear(in_features=4096, out_features=4096, bias=False)
        (o_proj): Linear(in_features=4096, out_features=4096, bias=False)
        (rotary_emb): LlamaRotaryEmbedding()
      )
      (mlp): LlamaMLP(
        (gate_proj): Linear(in_features=4096, out_features=11008, bias=False)
        (up_proj): Linear(in_features=4096, out_features=11008, bias=False)
        (down_proj): Linear(in_features=11008, out_features=4096, bias=False)
        (act_fn): SiLUActivation()
      )
      (input_layernorm): LlamaRMSNorm()
      (post_attention_layernorm): LlamaRMSNorm()
    )
  )
  (norm): LlamaRMSNorm()
  (vision_tower): CLIPVisionTower(
    (vision_tower): CLIPVisionModel(
      (vision_model): CLIPVisionTransformer(
        (embeddings): CLIPVisionEmbeddings(
          (patch_embedding): Conv2d(3, 1024, kernel_size=(14, 14), stride=(14, 14), bias=False)
          (position_embedding): Embedding(577, 1024)
        )
        (pre_layrnorm): LayerNorm((1024,), eps=1e-05, elementwise_affine=True)
        (encoder): CLIPEncoder(
          (layers): ModuleList(
            (0-23): 24 x CLIPEncoderLayer(
              (self_attn): CLIPAttention(
                (k_proj): Linear(in_features=1024, out_features=1024, bias=True)
                (v_proj): Linear(in_features=1024, out_features=1024, bias=True)
                (q_proj): Linear(in_features=1024, out_features=1024, bias=True)
                (out_proj): Linear(in_features=1024, out_features=1024, bias=True)
              )
              (layer_norm1): LayerNorm((1024,), eps=1e-05, elementwise_affine=True)
              (mlp): CLIPMLP(
                (activation_fn): QuickGELUActivation()
                (fc1): Linear(in_features=1024, out_features=4096, bias=True)
                (fc2): Linear(in_features=4096, out_features=1024, bias=True)
              )
              (layer_norm2): LayerNorm((1024,), eps=1e-05, elementwise_affine=True)
            )
          )
        )
        (post_layernorm): LayerNorm((1024,), eps=1e-05, elementwise_affine=True)
      )
    )
  )
  (mm_projector): Sequential(
    (0): Linear(in_features=1024, out_features=4096, bias=True)
    (1): GELU(approximate='none')
    (2): Linear(in_features=4096, out_features=4096, bias=True)
  )
)
current file path llava/model/llava_arch.py
def get_vision_tower(self)
vision_tower (raw)
 CLIPVisionTower(
  (vision_tower): CLIPVisionModel(
    (vision_model): CLIPVisionTransformer(
      (embeddings): CLIPVisionEmbeddings(
        (patch_embedding): Conv2d(3, 1024, kernel_size=(14, 14), stride=(14, 14), bias=False)
        (position_embedding): Embedding(577, 1024)
      )
      (pre_layrnorm): LayerNorm((1024,), eps=1e-05, elementwise_affine=True)
      (encoder): CLIPEncoder(
        (layers): ModuleList(
          (0-23): 24 x CLIPEncoderLayer(
            (self_attn): CLIPAttention(
              (k_proj): Linear(in_features=1024, out_features=1024, bias=True)
              (v_proj): Linear(in_features=1024, out_features=1024, bias=True)
              (q_proj): Linear(in_features=1024, out_features=1024, bias=True)
              (out_proj): Linear(in_features=1024, out_features=1024, bias=True)
            )
            (layer_norm1): LayerNorm((1024,), eps=1e-05, elementwise_affine=True)
            (mlp): CLIPMLP(
              (activation_fn): QuickGELUActivation()
              (fc1): Linear(in_features=1024, out_features=4096, bias=True)
              (fc2): Linear(in_features=4096, out_features=1024, bias=True)
            )
            (layer_norm2): LayerNorm((1024,), eps=1e-05, elementwise_affine=True)
          )
        )
      )
      (post_layernorm): LayerNorm((1024,), eps=1e-05, elementwise_affine=True)
    )
  )
)
vision_tower (return)
 CLIPVisionTower(
  (vision_tower): CLIPVisionModel(
    (vision_model): CLIPVisionTransformer(
      (embeddings): CLIPVisionEmbeddings(
        (patch_embedding): Conv2d(3, 1024, kernel_size=(14, 14), stride=(14, 14), bias=False)
        (position_embedding): Embedding(577, 1024)
      )
      (pre_layrnorm): LayerNorm((1024,), eps=1e-05, elementwise_affine=True)
      (encoder): CLIPEncoder(
        (layers): ModuleList(
          (0-23): 24 x CLIPEncoderLayer(
            (self_attn): CLIPAttention(
              (k_proj): Linear(in_features=1024, out_features=1024, bias=True)
              (v_proj): Linear(in_features=1024, out_features=1024, bias=True)
              (q_proj): Linear(in_features=1024, out_features=1024, bias=True)
              (out_proj): Linear(in_features=1024, out_features=1024, bias=True)
            )
            (layer_norm1): LayerNorm((1024,), eps=1e-05, elementwise_affine=True)
            (mlp): CLIPMLP(
              (activation_fn): QuickGELUActivation()
              (fc1): Linear(in_features=1024, out_features=4096, bias=True)
              (fc2): Linear(in_features=4096, out_features=1024, bias=True)
            )
            (layer_norm2): LayerNorm((1024,), eps=1e-05, elementwise_affine=True)
          )
        )
      )
      (post_layernorm): LayerNorm((1024,), eps=1e-05, elementwise_affine=True)
    )
  )
)
current file path llava/llava/model/language_model/llava_llama.py
def LlavaLlamaForCausalLM.get_model(self)
self
 <class 'llava.model.language_model.llava_llama.LlavaLlamaForCausalLM'>
self.model (return)
 LlavaLlamaModel(
  (embed_tokens): Embedding(32000, 4096, padding_idx=0)
  (layers): ModuleList(
    (0-31): 32 x LlamaDecoderLayer(
      (self_attn): LlamaAttention(
        (q_proj): Linear(in_features=4096, out_features=4096, bias=False)
        (k_proj): Linear(in_features=4096, out_features=4096, bias=False)
        (v_proj): Linear(in_features=4096, out_features=4096, bias=False)
        (o_proj): Linear(in_features=4096, out_features=4096, bias=False)
        (rotary_emb): LlamaRotaryEmbedding()
      )
      (mlp): LlamaMLP(
        (gate_proj): Linear(in_features=4096, out_features=11008, bias=False)
        (up_proj): Linear(in_features=4096, out_features=11008, bias=False)
        (down_proj): Linear(in_features=11008, out_features=4096, bias=False)
        (act_fn): SiLUActivation()
      )
      (input_layernorm): LlamaRMSNorm()
      (post_attention_layernorm): LlamaRMSNorm()
    )
  )
  (norm): LlamaRMSNorm()
  (vision_tower): CLIPVisionTower(
    (vision_tower): CLIPVisionModel(
      (vision_model): CLIPVisionTransformer(
        (embeddings): CLIPVisionEmbeddings(
          (patch_embedding): Conv2d(3, 1024, kernel_size=(14, 14), stride=(14, 14), bias=False)
          (position_embedding): Embedding(577, 1024)
        )
        (pre_layrnorm): LayerNorm((1024,), eps=1e-05, elementwise_affine=True)
        (encoder): CLIPEncoder(
          (layers): ModuleList(
            (0-23): 24 x CLIPEncoderLayer(
              (self_attn): CLIPAttention(
                (k_proj): Linear(in_features=1024, out_features=1024, bias=True)
                (v_proj): Linear(in_features=1024, out_features=1024, bias=True)
                (q_proj): Linear(in_features=1024, out_features=1024, bias=True)
                (out_proj): Linear(in_features=1024, out_features=1024, bias=True)
              )
              (layer_norm1): LayerNorm((1024,), eps=1e-05, elementwise_affine=True)
              (mlp): CLIPMLP(
                (activation_fn): QuickGELUActivation()
                (fc1): Linear(in_features=1024, out_features=4096, bias=True)
                (fc2): Linear(in_features=4096, out_features=1024, bias=True)
              )
              (layer_norm2): LayerNorm((1024,), eps=1e-05, elementwise_affine=True)
            )
          )
        )
        (post_layernorm): LayerNorm((1024,), eps=1e-05, elementwise_affine=True)
      )
    )
  )
  (mm_projector): Sequential(
    (0): Linear(in_features=1024, out_features=4096, bias=True)
    (1): GELU(approximate='none')
    (2): Linear(in_features=4096, out_features=4096, bias=True)
  )
)
current file path llava/train/train.py
def rank0_print(*args)
args
 ('Formatting inputs...Skip in lazy mode',)
Formatting inputs...Skip in lazy mode
current file path llava/train/llava_trainer.py
def _get_train_sampler(self)
self
 <llava.train.llava_trainer.LLaVATrainer object at 0x79ca141a45e0>
current file path llava/train/llava_trainer.py
def create_optimizer(self)
…
          [ 0.9648,  0.9648,  0.9648,  ...,  0.7539,  0.8086,  0.8359],
          ...,
          [-0.3711, -0.3848, -0.4004,  ..., -0.4277, -0.4277, -0.4277],
          [-0.3711, -0.3711, -0.3848,  ..., -0.4277, -0.4277, -0.4277],
          [-0.3848, -0.3711, -0.3711,  ..., -0.4277, -0.4277, -0.4277]]]],
       device='cuda:0', dtype=torch.bfloat16)
images.shape
 torch.Size([1, 3, 336, 336])
image_sizes
 None
return_dict
 None
current file path llava/llava/model/language_model/llava_llama.py
def LlavaLlamaForCausalLM.get_model(self)
self
 <class 'llava.model.language_model.llava_llama.LlavaLlamaForCausalLM'>
self.model (return)
 LlavaLlamaModel(
  (embed_tokens): Embedding(32000, 4096, padding_idx=0)
  (layers): ModuleList(
    (0-31): 32 x LlamaDecoderLayer(
      (self_attn): LlamaAttention(
        (q_proj): Linear(in_features=4096, out_features=4096, bias=False)
        (k_proj): Linear(in_features=4096, out_features=4096, bias=False)
        (v_proj): Linear(in_features=4096, out_features=4096, bias=False)
        (o_proj): Linear(in_features=4096, out_features=4096, bias=False)
        (rotary_emb): LlamaRotaryEmbedding()
      )
      (mlp): LlamaMLP(
        (gate_proj): Linear(in_features=4096, out_features=11008, bias=False)
        (up_proj): Linear(in_features=4096, out_features=11008, bias=False)
        (down_proj): Linear(in_features=11008, out_features=4096, bias=False)
        (act_fn): SiLUActivation()
      )
      (input_layernorm): LlamaRMSNorm()
      (post_attention_layernorm): LlamaRMSNorm()
    )
  )
  (norm): LlamaRMSNorm()
  (vision_tower): CLIPVisionTower(
    (vision_tower): CLIPVisionModel(
      (vision_model): CLIPVisionTransformer(
        (embeddings): CLIPVisionEmbeddings(
          (patch_embedding): Conv2d(3, 1024, kernel_size=(14, 14), stride=(14, 14), bias=False)
          (position_embedding): Embedding(577, 1024)
        )
        (pre_layrnorm): LayerNorm((1024,), eps=1e-05, elementwise_affine=True)
        (encoder): CLIPEncoder(
          (layers): ModuleList(
            (0-23): 24 x CLIPEncoderLayer(
              (self_attn): CLIPAttention(
                (k_proj): Linear(in_features=1024, out_features=1024, bias=True)
                (v_proj): Linear(in_features=1024, out_features=1024, bias=True)
                (q_proj): Linear(in_features=1024, out_features=1024, bias=True)
                (out_proj): Linear(in_features=1024, out_features=1024, bias=True)
              )
              (layer_norm1): LayerNorm((1024,), eps=1e-05, elementwise_affine=True)
              (mlp): CLIPMLP(
                (activation_fn): QuickGELUActivation()
                (fc1): Linear(in_features=1024, out_features=4096, bias=True)
                (fc2): Linear(in_features=4096, out_features=1024, bias=True)
              )
              (layer_norm2): LayerNorm((1024,), eps=1e-05, elementwise_affine=True)
            )
          )
        )
        (post_layernorm): LayerNorm((1024,), eps=1e-05, elementwise_affine=True)
      )
    )
  )
  (mm_projector): Sequential(
    (0): Linear(in_features=1024, out_features=4096, bias=True)
    (1): GELU(approximate='none')
    (2): Linear(in_features=4096, out_features=4096, bias=True)
  )
)
current file path llava/model/llava_arch.py
def get_vision_tower(self)
vision_tower (raw)
 CLIPVisionTower(
  (vision_tower): CLIPVisionModel(
    (vision_model): CLIPVisionTransformer(
      (embeddings): CLIPVisionEmbeddings(
        (patch_embedding): Conv2d(3, 1024, kernel_size=(14, 14), stride=(14, 14), bias=False)
        (position_embedding): Embedding(577, 1024)
      )
      (pre_layrnorm): LayerNorm((1024,), eps=1e-05, elementwise_affine=True)
      (encoder): CLIPEncoder(
        (layers): ModuleList(
          (0-23): 24 x CLIPEncoderLayer(
            (self_attn): CLIPAttention(
              (k_proj): Linear(in_features=1024, out_features=1024, bias=True)
              (v_proj): Linear(in_features=1024, out_features=1024, bias=True)
              (q_proj): Linear(in_features=1024, out_features=1024, bias=True)
              (out_proj): Linear(in_features=1024, out_features=1024, bias=True)
            )
            (layer_norm1): LayerNorm((1024,), eps=1e-05, elementwise_affine=True)
            (mlp): CLIPMLP(
              (activation_fn): QuickGELUActivation()
              (fc1): Linear(in_features=1024, out_features=4096, bias=True)
              (fc2): Linear(in_features=4096, out_features=1024, bias=True)
            )
            (layer_norm2): LayerNorm((1024,), eps=1e-05, elementwise_affine=True)
          )
        )
      )
      (post_layernorm): LayerNorm((1024,), eps=1e-05, elementwise_affine=True)
    )
  )
)
vision_tower (return)
 CLIPVisionTower(
  (vision_tower): CLIPVisionModel(
    (vision_model): CLIPVisionTransformer(
      (embeddings): CLIPVisionEmbeddings(
        (patch_embedding): Conv2d(3, 1024, kernel_size=(14, 14), stride=(14, 14), bias=False)
        (position_embedding): Embedding(577, 1024)
      )
      (pre_layrnorm): LayerNorm((1024,), eps=1e-05, elementwise_affine=True)
      (encoder): CLIPEncoder(
        (layers): ModuleList(
          (0-23): 24 x CLIPEncoderLayer(
            (self_attn): CLIPAttention(
              (k_proj): Linear(in_features=1024, out_features=1024, bias=True)
              (v_proj): Linear(in_features=1024, out_features=1024, bias=True)
              (q_proj): Linear(in_features=1024, out_features=1024, bias=True)
              (out_proj): Linear(in_features=1024, out_features=1024, bias=True)
            )
            (layer_norm1): LayerNorm((1024,), eps=1e-05, elementwise_affine=True)
            (mlp): CLIPMLP(
              (activation_fn): QuickGELUActivation()
              (fc1): Linear(in_features=1024, out_features=4096, bias=True)
              (fc2): Linear(in_features=4096, out_features=1024, bias=True)
            )
            (layer_norm2): LayerNorm((1024,), eps=1e-05, elementwise_affine=True)
          )
        )
      )
      (post_layernorm): LayerNorm((1024,), eps=1e-05, elementwise_affine=True)
    )
  )
)
current file path llava/llava/model/language_model/llava_llama.py
def LlavaLlamaForCausalLM.get_model(self)
self
 <class 'llava.model.language_model.llava_llama.LlavaLlamaForCausalLM'>
self.model (return)
 LlavaLlamaModel(
  (embed_tokens): Embedding(32000, 4096, padding_idx=0)
  (layers): ModuleList(
    (0-31): 32 x LlamaDecoderLayer(
      (self_attn): LlamaAttention(
        (q_proj): Linear(in_features=4096, out_features=4096, bias=False)
        (k_proj): Linear(in_features=4096, out_features=4096, bias=False)
        (v_proj): Linear(in_features=4096, out_features=4096, bias=False)
        (o_proj): Linear(in_features=4096, out_features=4096, bias=False)
        (rotary_emb): LlamaRotaryEmbedding()
      )
      (mlp): LlamaMLP(
        (gate_proj): Linear(in_features=4096, out_features=11008, bias=False)
        (up_proj): Linear(in_features=4096, out_features=11008, bias=False)
        (down_proj): Linear(in_features=11008, out_features=4096, bias=False)
        (act_fn): SiLUActivation()
      )
      (input_layernorm): LlamaRMSNorm()
      (post_attention_layernorm): LlamaRMSNorm()
    )
  )
  (norm): LlamaRMSNorm()
  (vision_tower): CLIPVisionTower(
    (vision_tower): CLIPVisionModel(
      (vision_model): CLIPVisionTransformer(
        (embeddings): CLIPVisionEmbeddings(
          (patch_embedding): Conv2d(3, 1024, kernel_size=(14, 14), stride=(14, 14), bias=False)
          (position_embedding): Embedding(577, 1024)
        )
        (pre_layrnorm): LayerNorm((1024,), eps=1e-05, elementwise_affine=True)
        (encoder): CLIPEncoder(
          (layers): ModuleList(
            (0-23): 24 x CLIPEncoderLayer(
              (self_attn): CLIPAttention(
                (k_proj): Linear(in_features=1024, out_features=1024, bias=True)
                (v_proj): Linear(in_features=1024, out_features=1024, bias=True)
                (q_proj): Linear(in_features=1024, out_features=1024, bias=True)
                (out_proj): Linear(in_features=1024, out_features=1024, bias=True)
              )
              (layer_norm1): LayerNorm((1024,), eps=1e-05, elementwise_affine=True)
              (mlp): CLIPMLP(
                (activation_fn): QuickGELUActivation()
                (fc1): Linear(in_features=1024, out_features=4096, bias=True)
                (fc2): Linear(in_features=4096, out_features=1024, bias=True)
              )
              (layer_norm2): LayerNorm((1024,), eps=1e-05, elementwise_affine=True)
            )
          )
        )
        (post_layernorm): LayerNorm((1024,), eps=1e-05, elementwise_affine=True)
      )
    )
  )
  (mm_projector): Sequential(
    (0): Linear(in_features=1024, out_features=4096, bias=True)
    (1): GELU(approximate='none')
    (2): Linear(in_features=4096, out_features=4096, bias=True)
  )
)
current file path llava/model/llava_arch.py
def get_vision_tower(self)
vision_tower (raw)
 CLIPVisionTower(
  (vision_tower): CLIPVisionModel(
    (vision_model): CLIPVisionTransformer(
      (embeddings): CLIPVisionEmbeddings(
        (patch_embedding): Conv2d(3, 1024, kernel_size=(14, 14), stride=(14, 14), bias=False)
        (position_embedding): Embedding(577, 1024)
      )
      (pre_layrnorm): LayerNorm((1024,), eps=1e-05, elementwise_affine=True)
      (encoder): CLIPEncoder(
        (layers): ModuleList(
          (0-23): 24 x CLIPEncoderLayer(
            (self_attn): CLIPAttention(
              (k_proj): Linear(in_features=1024, out_features=1024, bias=True)
              (v_proj): Linear(in_features=1024, out_features=1024, bias=True)
              (q_proj): Linear(in_features=1024, out_features=1024, bias=True)
              (out_proj): Linear(in_features=1024, out_features=1024, bias=True)
            )
            (layer_norm1): LayerNorm((1024,), eps=1e-05, elementwise_affine=True)
            (mlp): CLIPMLP(
              (activation_fn): QuickGELUActivation()
              (fc1): Linear(in_features=1024, out_features=4096, bias=True)
              (fc2): Linear(in_features=4096, out_features=1024, bias=True)
            )
            (layer_norm2): LayerNorm((1024,), eps=1e-05, elementwise_affine=True)
          )
        )
      )
      (post_layernorm): LayerNorm((1024,), eps=1e-05, elementwise_affine=True)
    )
  )
)
vision_tower (return)
 CLIPVisionTower(
  (vision_tower): CLIPVisionModel(
    (vision_model): CLIPVisionTransformer(
      (embeddings): CLIPVisionEmbeddings(
        (patch_embedding): Conv2d(3, 1024, kernel_size=(14, 14), stride=(14, 14), bias=False)
        (position_embedding): Embedding(577, 1024)
      )
      (pre_layrnorm): LayerNorm((1024,), eps=1e-05, elementwise_affine=True)
      (encoder): CLIPEncoder(
        (layers): ModuleList(
          (0-23): 24 x CLIPEncoderLayer(
            (self_attn): CLIPAttention(
              (k_proj): Linear(in_features=1024, out_features=1024, bias=True)
              (v_proj): Linear(in_features=1024, out_features=1024, bias=True)
              (q_proj): Linear(in_features=1024, out_features=1024, bias=True)
              (out_proj): Linear(in_features=1024, out_features=1024, bias=True)
            )
            (layer_norm1): LayerNorm((1024,), eps=1e-05, elementwise_affine=True)
            (mlp): CLIPMLP(
              (activation_fn): QuickGELUActivation()
              (fc1): Linear(in_features=1024, out_features=4096, bias=True)
              (fc2): Linear(in_features=4096, out_features=1024, bias=True)
            )
            (layer_norm2): LayerNorm((1024,), eps=1e-05, elementwise_affine=True)
          )
        )
      )
      (post_layernorm): LayerNorm((1024,), eps=1e-05, elementwise_affine=True)
    )
  )
)
current file path llava/llava/model/multimodal_encoder/clip_encoder.py
def CLIPVisionTower.forward(self, images)
images
 tensor([[[[ 0.0325,  0.0325,  0.0325,  ..., -0.7109, -0.3613, -0.1279],
          [ 0.0325,  0.0325,  0.0325,  ..., -0.3906, -0.1719, -0.0259],
          [ 0.0325,  0.0325,  0.0325,  ..., -0.0112,  0.0471,  0.0908],
          ...,
…
         [ 1.0625, -0.0635, -0.3730,  ...,  0.0220,  0.0820,  0.4805],
         ...,
         [ 1.7188,  0.9688,  0.8828,  ..., -0.2441, -0.8672,  1.3047],
         [ 0.7891, -0.3984,  0.6797,  ..., -0.3594, -0.9922,  0.3164],
         [ 1.5000,  0.6250,  0.3672,  ..., -0.5469, -0.4902,  0.9766]]],
       device='cuda:0', dtype=torch.bfloat16)
image_features.shape
 torch.Size([1, 576, 1024])
current file path llava/llava/model/language_model/llava_llama.py
def LlavaLlamaForCausalLM.get_model(self)
self
 <class 'llava.model.language_model.llava_llama.LlavaLlamaForCausalLM'>
self.model (return)
 LlavaLlamaModel(
  (embed_tokens): Embedding(32000, 4096, padding_idx=0)
  (layers): ModuleList(
    (0-31): 32 x LlamaDecoderLayer(
      (self_attn): LlamaAttention(
        (q_proj): Linear(in_features=4096, out_features=4096, bias=False)
        (k_proj): Linear(in_features=4096, out_features=4096, bias=False)
        (v_proj): Linear(in_features=4096, out_features=4096, bias=False)
        (o_proj): Linear(in_features=4096, out_features=4096, bias=False)
        (rotary_emb): LlamaRotaryEmbedding()
      )
      (mlp): LlamaMLP(
        (gate_proj): Linear(in_features=4096, out_features=11008, bias=False)
        (up_proj): Linear(in_features=4096, out_features=11008, bias=False)
        (down_proj): Linear(in_features=11008, out_features=4096, bias=False)
        (act_fn): SiLUActivation()
      )
      (input_layernorm): LlamaRMSNorm()
      (post_attention_layernorm): LlamaRMSNorm()
    )
  )
  (norm): LlamaRMSNorm()
  (vision_tower): CLIPVisionTower(
    (vision_tower): CLIPVisionModel(
      (vision_model): CLIPVisionTransformer(
        (embeddings): CLIPVisionEmbeddings(
          (patch_embedding): Conv2d(3, 1024, kernel_size=(14, 14), stride=(14, 14), bias=False)
          (position_embedding): Embedding(577, 1024)
        )
        (pre_layrnorm): LayerNorm((1024,), eps=1e-05, elementwise_affine=True)
        (encoder): CLIPEncoder(
          (layers): ModuleList(
            (0-23): 24 x CLIPEncoderLayer(
              (self_attn): CLIPAttention(
                (k_proj): Linear(in_features=1024, out_features=1024, bias=True)
                (v_proj): Linear(in_features=1024, out_features=1024, bias=True)
                (q_proj): Linear(in_features=1024, out_features=1024, bias=True)
                (out_proj): Linear(in_features=1024, out_features=1024, bias=True)
              )
              (layer_norm1): LayerNorm((1024,), eps=1e-05, elementwise_affine=True)
              (mlp): CLIPMLP(
                (activation_fn): QuickGELUActivation()
                (fc1): Linear(in_features=1024, out_features=4096, bias=True)
                (fc2): Linear(in_features=4096, out_features=1024, bias=True)
              )
              (layer_norm2): LayerNorm((1024,), eps=1e-05, elementwise_affine=True)
            )
          )
        )
        (post_layernorm): LayerNorm((1024,), eps=1e-05, elementwise_affine=True)
      )
    )
  )
  (mm_projector): Sequential(
    (0): Linear(in_features=1024, out_features=4096, bias=True)
    (1): GELU(approximate='none')
    (2): Linear(in_features=4096, out_features=4096, bias=True)
  )
)
current file path llava/llava/model/language_model/llava_llama.py
def LlavaLlamaForCausalLM.get_model(self)
self
 <class 'llava.model.language_model.llava_llama.LlavaLlamaForCausalLM'>
self.model (return)
 LlavaLlamaModel(
  (embed_tokens): Embedding(32000, 4096, padding_idx=0)
  (layers): ModuleList(
    (0-31): 32 x LlamaDecoderLayer(
      (self_attn): LlamaAttention(
        (q_proj): Linear(in_features=4096, out_features=4096, bias=False)
        (k_proj): Linear(in_features=4096, out_features=4096, bias=False)
        (v_proj): Linear(in_features=4096, out_features=4096, bias=False)
        (o_proj): Linear(in_features=4096, out_features=4096, bias=False)
        (rotary_emb): LlamaRotaryEmbedding()
      )
      (mlp): LlamaMLP(
        (gate_proj): Linear(in_features=4096, out_features=11008, bias=False)
        (up_proj): Linear(in_features=4096, out_features=11008, bias=False)
        (down_proj): Linear(in_features=11008, out_features=4096, bias=False)
        (act_fn): SiLUActivation()
      )
      (input_layernorm): LlamaRMSNorm()
      (post_attention_layernorm): LlamaRMSNorm()
    )
  )
  (norm): LlamaRMSNorm()
  (vision_tower): CLIPVisionTower(
    (vision_tower): CLIPVisionModel(
      (vision_model): CLIPVisionTransformer(
        (embeddings): CLIPVisionEmbeddings(
          (patch_embedding): Conv2d(3, 1024, kernel_size=(14, 14), stride=(14, 14), bias=False)
          (position_embedding): Embedding(577, 1024)
        )
        (pre_layrnorm): LayerNorm((1024,), eps=1e-05, elementwise_affine=True)
        (encoder): CLIPEncoder(
          (layers): ModuleList(
            (0-23): 24 x CLIPEncoderLayer(
              (self_attn): CLIPAttention(
                (k_proj): Linear(in_features=1024, out_features=1024, bias=True)
                (v_proj): Linear(in_features=1024, out_features=1024, bias=True)
                (q_proj): Linear(in_features=1024, out_features=1024, bias=True)
                (out_proj): Linear(in_features=1024, out_features=1024, bias=True)
              )
              (layer_norm1): LayerNorm((1024,), eps=1e-05, elementwise_affine=True)
              (mlp): CLIPMLP(
                (activation_fn): QuickGELUActivation()
                (fc1): Linear(in_features=1024, out_features=4096, bias=True)
                (fc2): Linear(in_features=4096, out_features=1024, bias=True)
              )
              (layer_norm2): LayerNorm((1024,), eps=1e-05, elementwise_affine=True)
            )
          )
        )
        (post_layernorm): LayerNorm((1024,), eps=1e-05, elementwise_affine=True)
      )
    )
  )
  (mm_projector): Sequential(
    (0): Linear(in_features=1024, out_features=4096, bias=True)
    (1): GELU(approximate='none')
    (2): Linear(in_features=4096, out_features=4096, bias=True)
  )
)
result (return)
 CausalLMOutputWithPast(loss=tensor(8.8108, device='cuda:0', grad_fn=<NllLossBackward0>), logits=tensor([[[  0.8242,   0.1855,  -0.7031,  ...,   1.6719,   2.6719,   1.1875],
         [ -9.2500,  -3.9844,   6.6875,  ...,  -5.0000,  -7.3125,  -5.8438],
         [-10.5000,  -3.8438,   4.0625,  ...,  -8.2500, -11.2500,  -9.8750],
         ...,
…
       device='cuda:0', grad_fn=<ToCopyBackward0>), past_key_values=None, hidden_states=None, attentions=None)
{'loss': 8.8108, 'learning_rate': 0.001, 'epoch': 1.0}                                                                   
100%|██████████████████████████████████████████████████████████████████████████████████████| 1/1 [00:01<00:00,  1.53s/it]current file path llava/train/llava_trainer.py
def _save_checkpoint(self, model, trial, metrics=None)
self
 <llava.train.llava_trainer.LLaVATrainer object at 0x79ca141a45e0>
model
 DeepSpeedEngine(
  (module): LlavaLlamaForCausalLM(
    (model): LlavaLlamaModel(
      (embed_tokens): Embedding(32000, 4096, padding_idx=0)
      (layers): ModuleList(
        (0-31): 32 x LlamaDecoderLayer(
          (self_attn): LlamaAttention(
            (q_proj): Linear(in_features=4096, out_features=4096, bias=False)
            (k_proj): Linear(in_features=4096, out_features=4096, bias=False)
            (v_proj): Linear(in_features=4096, out_features=4096, bias=False)
            (o_proj): Linear(in_features=4096, out_features=4096, bias=False)
            (rotary_emb): LlamaRotaryEmbedding()
          )
          (mlp): LlamaMLP(
            (gate_proj): Linear(in_features=4096, out_features=11008, bias=False)
            (up_proj): Linear(in_features=4096, out_features=11008, bias=False)
            (down_proj): Linear(in_features=11008, out_features=4096, bias=False)
            (act_fn): SiLUActivation()
          )
          (input_layernorm): LlamaRMSNorm()
          (post_attention_layernorm): LlamaRMSNorm()
        )
      )
      (norm): LlamaRMSNorm()
      (vision_tower): CLIPVisionTower(
        (vision_tower): CLIPVisionModel(
          (vision_model): CLIPVisionTransformer(
            (embeddings): CLIPVisionEmbeddings(
              (patch_embedding): Conv2d(3, 1024, kernel_size=(14, 14), stride=(14, 14), bias=False)
              (position_embedding): Embedding(577, 1024)
            )
            (pre_layrnorm): LayerNorm((1024,), eps=1e-05, elementwise_affine=True)
            (encoder): CLIPEncoder(
              (layers): ModuleList(
                (0-23): 24 x CLIPEncoderLayer(
                  (self_attn): CLIPAttention(
                    (k_proj): Linear(in_features=1024, out_features=1024, bias=True)
                    (v_proj): Linear(in_features=1024, out_features=1024, bias=True)
                    (q_proj): Linear(in_features=1024, out_features=1024, bias=True)
                    (out_proj): Linear(in_features=1024, out_features=1024, bias=True)
                  )
                  (layer_norm1): LayerNorm((1024,), eps=1e-05, elementwise_affine=True)
                  (mlp): CLIPMLP(
                    (activation_fn): QuickGELUActivation()
                    (fc1): Linear(in_features=1024, out_features=4096, bias=True)
                    (fc2): Linear(in_features=4096, out_features=1024, bias=True)
                  )
                  (layer_norm2): LayerNorm((1024,), eps=1e-05, elementwise_affine=True)
                )
              )
            )
            (post_layernorm): LayerNorm((1024,), eps=1e-05, elementwise_affine=True)
          )
        )
      )
      (mm_projector): Sequential(
        (0): Linear(in_features=1024, out_features=4096, bias=True)
        (1): GELU(approximate='none')
        (2): Linear(in_features=4096, out_features=4096, bias=True)
      )
    )
    (lm_head): Linear(in_features=4096, out_features=32000, bias=False)
  )
)
trial
 None
metrics
 None
current file path llava/train/llava_trainer.py
def get_mm_adapter_state_maybe_zero_3(named_params, keys_to_match)
named_params
 <generator object Module.named_parameters at 0x79ca1421e7a0>
keys_to_match
 ['mm_projector', 'vision_resampler']
current file path llava/train/llava_trainer.py
def maybe_zero_3(param, ignore_status=False, name=None)
…
