…
/envs/llava-med/lib/python3.10/site-packages/peft/tuners/lora.py\", line 194, in add_adapter\r\n    self._find_and_replace(adapter_name)\r\n  File \"/home/eric/anaconda3/envs/llava-med/lib/python3.10/site-packages/peft/tuners/lora.py\", line 352, in _find_and_replace\r\n    new_module = self._create_new_module(lora_config, adapter_name, target)\r\n  File \"/home/eric/anaconda3/envs/llava-med/lib/python3.10/site-packages/peft/tuners/lora.py\", line 305, in _create_new_module\r\n    raise ValueError(\r\nValueError: Target module LlamaDecoderLayer(\r\n  (self_attn): LlamaAttention(\r\n    (q_proj): Linear(in_features=5120, out_features=5120, bias=False)\r\n    (k_proj): Linear(in_features=5120, out_features=5120, bias=False)\r\n    (v_proj): Linear(in_features=5120, out_features=5120, bias=False)\r\n    (o_proj): Linear(in_features=5120, out_features=5120, bias=False)\r\n    (rotary_emb): LlamaRotaryEmbedding()\r\n  )\r\n  (mlp): LlamaMLP(\r\n    (gate_proj): Linear(in_features=5120, out_features=13824, bias=False)\r\n    (up_proj): Linear(in_features=5120, out_features=13824, bias=False)\r\n    (down_proj): Linear(in_features=13824, out_features=5120, bias=False)\r\n    (act_fn): SiLUActivation()\r\n  )\r\n  (input_layernorm): LlamaRMSNorm()\r\n  (post_attention_layernorm): LlamaRMSNorm()\r\n) is not supported. Currently, only `torch.nn.Linear` and `Conv1D` are supported.\r\n[2023-12-10 02:44:54,053] [INFO] [launch.py:315:sigkill_handler] Killing subprocess 2675989\r\n[2023-12-10 02:44:54,053] [ERROR] [laun
…
b/python3.10/site-packages/peft/tuners/lora.py\", line 194, in add_adapter\r\n    self._find_and_replace(adapter_name)\r\n  File \"/home/carlos.limasantos/anaconda3/envs/llava/lib/python3.10/site-packages/peft/tuners/lora.py\", line 352, in _find_and_replace\r\n    new_module = self._create_new_module(lora_config, adapter_name, target)\r\n  File \"/home/carlos.limasantos/anaconda3/envs/llava/lib/python3.10/site-packages/peft/tuners/lora.py\", line 305, in _create_new_module\r\n    raise ValueError(\r\nValueError: Target module LlamaDecoderLayer(\r\n  (self_attn): LlamaAttention(\r\n    (q_proj): Linear(in_features=4096, out_features=4096, bias=False)\r\n    (k_proj): Linear(in_features=4096, out_features=4096, bias=False)\r\n    (v_proj): Linear(in_features=4096, out_features=4096, bias=False)\r\n    (o_proj): Linear(in_features=4096, out_features=4096, bias=False)\r\n    (rotary_emb): LlamaRotaryEmbedding()\r\n  )\r\n  (mlp): LlamaMLP(\r\n    (gate_proj): Linear(in_features=4096, out_features=11008, bias=False)\r\n    (up_proj): Linear(in_features=4096, out_features=11008, bias=False)\r\n    (down_proj): Linear(in_features=11008, out_features=4096, bias=False)\r\n    (act_fn): SiLUActivation()\r\n  )\r\n  (input_layernorm): LlamaRMSNorm()\r\n  (post_attention_layernorm): LlamaRMSNorm()\r\n) is not supported. Currently, only `torch.nn.Linear` and `Conv1D` are supported.\n</Comment>\n<Comment by dashascience at 2024-02-01T20:00:08Z>\n> Not working for me. Was your error exactly this one? (I realized that c
…
home/carlos.limasantos/anaconda3/envs/llava/lib/python3.10/site-packages/peft/tuners/lora.py\", line 194, in add_adapter self._find_and_replace(adapter_name) File \"/home/carlos.limasantos/anaconda3/envs/llava/lib/python3.10/site-packages/peft/tuners/lora.py\", line 352, in _find_and_replace new_module = self._create_new_module(lora_config, adapter_name, target) File \"/home/carlos.limasantos/anaconda3/envs/llava/lib/python3.10/site-packages/peft/tuners/lora.py\", line 305, in _create_new_module raise ValueError( ValueError: Target module LlamaDecoderLayer( (self_attn): LlamaAttention( (q_proj): Linear(in_features=4096, out_features=4096, bias=False) (k_proj): Linear(in_features=4096, out_features=4096, bias=False) (v_proj): Linear(in_features=4096, out_features=4096, bias=False) (o_proj): Linear(in_features=4096, out_features=4096, bias=False) (rotary_emb): LlamaRotaryEmbedding() ) (mlp): LlamaMLP( (gate_proj): Linear(in_features=4096, out_features=11008, bias=False) (up_proj): Linear(in_features=4096, out_features=11008, bias=False) (down_proj): Linear(in_features=11008, out_features=4096, bias=False) (act_fn): SiLUActivation() ) (input_layernorm): LlamaRMSNorm() (post_attention_layernorm): LlamaRMSNorm() ) is not supported. Currently, only `torch.nn.Linear` and `Conv1D` are supported.\r\n\r\nI have the same issue. Did you resolve it? Thanks in advance for answer.\n</Comment>\n<Comment by phellonchen at 2024-02-18T03:54:50Z>\nsame issue\n</Comme
…
